…
I0307 01:00:17.733068 3567440832 net.cpp:322] The NetState phase (0) differed from the phase (1) specified by a rule in layer mnist
I0307 01:00:17.733093 3567440832 net.cpp:322] The NetState phase (0) differed from the phase (1) specified by a rule in layer accuracy
I0307 01:00:17.733104 3567440832 net.cpp:58] Initializing net from parameters: 
name: "LeNet"
state {
  phase: TRAIN
  level: 0
  stage: ""
}
layer {
  name: "mnist"
  type: "Data"
  top: "data"
  top: "label"
  include {
    phase: TRAIN
  }
  transform_param {
    scale: 0.00390625
  }
  data_param {
    source: "data/mnist/84x28_training_images_+0_lmdb"
    batch_size: 64
    backend: LMDB
  }
}
layer {
  name: "conv1"
  type: "Convolution"
  bottom: "data"
  top: "conv1"
  param {
    lr_mult: 1
  }
  param {
    lr_mult: 2
  }
  convolution_param {
    num_output: 20
    kernel_size: 5
    stride: 1
    weight_filler {
      type: "xavier"
    }
    bias_filler {
      type: "constant"
    }
  }
}
layer {
  name: "pool1"
  type: "Pooling"
  bottom: "conv1"
  top: "pool1"
  pooling_param {
    pool: MAX
    kernel_size: 2
    stride: 2
  }
}
layer {
  name: "conv2"
  type: "Convolution"
  bottom: "pool1"
  top: "conv2"
  param {
    lr_mult: 1
  }
  param {
    lr_mult: 2
  }
  convolution_param {
    num_output: 50
    kernel_size: 5
    stride: 1
    weight_filler {
      type: "xavier"
    }
    bias_filler {
      type: "constant"
    }
  }
}
layer {
  name: "pool2"
  type: "Pooling"
  bottom: "conv2"
  top: "pool2"
  pooling_param {
    pool: MAX
    kernel_size: 2
    stride: 2
  }
}
layer {
  name: "ip1"
  type: "InnerProduct"
  bottom: "pool2"
  top: "ip1"
  param {
    lr_mult: 1
  }
  param {
    lr_mult: 2
  }
  inner_product_param {
    num_output: 500
    weight_filler {
      type: "xavier"
    }
    bias_filler {
      type: "constant"
    }
  }
}
layer {
  name: "relu1"
  type: "ReLU"
  bottom: "ip1"
  top: "ip1"
}
layer {
  name: "ip2"
  type: "InnerProduct"
  bottom: "ip1"
  top: "ip2"
  param {
    lr_mult: 1
  }
  param {
    lr_mult: 2
  }
  inner_product_param {
    num_output: 10
    weight_filler {
      type: "xavier"
    }
    bias_filler {
      type: "constant"
    }
  }
}
layer {
  name: "loss"
  type: "SoftmaxWithLoss"
  bottom: "ip2"
  bottom: "label"
  top: "loss"
}
I0307 01:00:17.733254 3567440832 layer_factory.hpp:77] Creating layer mnist
I0307 01:00:17.742095 3567440832 net.cpp:100] Creating Layer mnist
I0307 01:00:17.742130 3567440832 net.cpp:408] mnist -> data
I0307 01:00:17.742154 3567440832 net.cpp:408] mnist -> label
I0307 01:00:17.742313 152498176 db_lmdb.cpp:35] Opened lmdb data/mnist/84x28_training_images_+0_lmdb
I0307 01:00:17.742435 3567440832 data_layer.cpp:41] output data size: 64,3,28,84
I0307 01:00:17.745460 3567440832 net.cpp:150] Setting up mnist
I0307 01:00:17.745491 3567440832 net.cpp:157] Top shape: 64 3 28 84 (451584)
I0307 01:00:17.745501 3567440832 net.cpp:157] Top shape: 64 (64)
I0307 01:00:17.745510 3567440832 net.cpp:165] Memory required for data: 1806592
I0307 01:00:17.745524 3567440832 layer_factory.hpp:77] Creating layer conv1
I0307 01:00:17.745545 3567440832 net.cpp:100] Creating Layer conv1
I0307 01:00:17.745553 3567440832 net.cpp:434] conv1 <- data
I0307 01:00:17.745565 3567440832 net.cpp:408] conv1 -> conv1
I0307 01:00:17.745679 3567440832 net.cpp:150] Setting up conv1
I0307 01:00:17.745689 3567440832 net.cpp:157] Top shape: 64 20 24 80 (2457600)
I0307 01:00:17.745698 3567440832 net.cpp:165] Memory required for data: 11636992
I0307 01:00:17.745712 3567440832 layer_factory.hpp:77] Creating layer pool1
I0307 01:00:17.745766 3567440832 net.cpp:100] Creating Layer pool1
I0307 01:00:17.745775 3567440832 net.cpp:434] pool1 <- conv1
I0307 01:00:17.745786 3567440832 net.cpp:408] pool1 -> pool1
I0307 01:00:17.745807 3567440832 net.cpp:150] Setting up pool1
I0307 01:00:17.745815 3567440832 net.cpp:157] Top shape: 64 20 12 40 (614400)
I0307 01:00:17.745823 3567440832 net.cpp:165] Memory required for data: 14094592
I0307 01:00:17.745831 3567440832 layer_factory.hpp:77] Creating layer conv2
I0307 01:00:17.745846 3567440832 net.cpp:100] Creating Layer conv2
I0307 01:00:17.745856 3567440832 net.cpp:434] conv2 <- pool1
I0307 01:00:17.745874 3567440832 net.cpp:408] conv2 -> conv2
I0307 01:00:17.746234 3567440832 net.cpp:150] Setting up conv2
I0307 01:00:17.746243 3567440832 net.cpp:157] Top shape: 64 50 8 36 (921600)
I0307 01:00:17.746253 3567440832 net.cpp:165] Memory required for data: 17780992
I0307 01:00:17.746264 3567440832 layer_factory.hpp:77] Creating layer pool2
I0307 01:00:17.746276 3567440832 net.cpp:100] Creating Layer pool2
I0307 01:00:17.746284 3567440832 net.cpp:434] pool2 <- conv2
I0307 01:00:17.746311 3567440832 net.cpp:408] pool2 -> pool2
I0307 01:00:17.746328 3567440832 net.cpp:150] Setting up pool2
I0307 01:00:17.746335 3567440832 net.cpp:157] Top shape: 64 50 4 18 (230400)
I0307 01:00:17.746343 3567440832 net.cpp:165] Memory required for data: 18702592
I0307 01:00:17.746350 3567440832 layer_factory.hpp:77] Creating layer ip1
I0307 01:00:17.746364 3567440832 net.cpp:100] Creating Layer ip1
I0307 01:00:17.746371 3567440832 net.cpp:434] ip1 <- pool2
I0307 01:00:17.746381 3567440832 net.cpp:408] ip1 -> ip1
I0307 01:00:17.772397 3567440832 net.cpp:150] Setting up ip1
I0307 01:00:17.772449 3567440832 net.cpp:157] Top shape: 64 500 (32000)
I0307 01:00:17.772459 3567440832 net.cpp:165] Memory required for data: 18830592
I0307 01:00:17.772478 3567440832 layer_factory.hpp:77] Creating layer relu1
I0307 01:00:17.772516 3567440832 net.cpp:100] Creating Layer relu1
I0307 01:00:17.772528 3567440832 net.cpp:434] relu1 <- ip1
I0307 01:00:17.772555 3567440832 net.cpp:395] relu1 -> ip1 (in-place)
I0307 01:00:17.772579 3567440832 net.cpp:150] Setting up relu1
I0307 01:00:17.772589 3567440832 net.cpp:157] Top shape: 64 500 (32000)
I0307 01:00:17.772598 3567440832 net.cpp:165] Memory required for data: 18958592
I0307 01:00:17.772671 3567440832 layer_factory.hpp:77] Creating layer ip2
I0307 01:00:17.772712 3567440832 net.cpp:100] Creating Layer ip2
I0307 01:00:17.772730 3567440832 net.cpp:434] ip2 <- ip1
I0307 01:00:17.772753 3567440832 net.cpp:408] ip2 -> ip2
I0307 01:00:17.772971 3567440832 net.cpp:150] Setting up ip2
I0307 01:00:17.773037 3567440832 net.cpp:157] Top shape: 64 10 (640)
I0307 01:00:17.773061 3567440832 net.cpp:165] Memory required for data: 18961152
I0307 01:00:17.773100 3567440832 layer_factory.hpp:77] Creating layer loss
I0307 01:00:17.773299 3567440832 net.cpp:100] Creating Layer loss
I0307 01:00:17.773329 3567440832 net.cpp:434] loss <- ip2
I0307 01:00:17.773355 3567440832 net.cpp:434] loss <- label
I0307 01:00:17.773371 3567440832 net.cpp:408] loss -> loss
…
I0307 01:00:17.774986 3567440832 solver.cpp:181] Creating test net (#0) specified by net file: examples/mnist/lenet_train_test.prototxt
I0307 01:00:17.775173 3567440832 net.cpp:322] The NetState phase (1) differed from the phase (0) specified by a rule in layer mnist
I0307 01:00:17.775249 3567440832 net.cpp:58] Initializing net from parameters: 
name: "LeNet"
state {
  phase: TEST
}
layer {
  name: "mnist"
  type: "Data"
  top: "data"
  top: "label"
  include {
    phase: TEST
  }
  transform_param {
    scale: 0.00390625
  }
  data_param {
    source: "data/mnist/84x28_testing_images_+0_lmdb"
    batch_size: 100
    backend: LMDB
  }
}
layer {
  name: "conv1"
  type: "Convolution"
  bottom: "data"
  top: "conv1"
  param {
    lr_mult: 1
  }
  param {
    lr_mult: 2
  }
  convolution_param {
    num_output: 20
    kernel_size: 5
    stride: 1
    weight_filler {
      type: "xavier"
    }
    bias_filler {
      type: "constant"
    }
  }
}
layer {
  name: "pool1"
  type: "Pooling"
  bottom: "conv1"
  top: "pool1"
  pooling_param {
    pool: MAX
    kernel_size: 2
    stride: 2
  }
}
layer {
  name: "conv2"
  type: "Convolution"
  bottom: "pool1"
  top: "conv2"
  param {
    lr_mult: 1
  }
  param {
    lr_mult: 2
  }
  convolution_param {
    num_output: 50
    kernel_size: 5
    stride: 1
    weight_filler {
      type: "xavier"
    }
    bias_filler {
      type: "constant"
    }
  }
}
layer {
  name: "pool2"
  type: "Pooling"
  bottom: "conv2"
  top: "pool2"
  pooling_param {
    pool: MAX
    kernel_size: 2
    stride: 2
  }
}
layer {
  name: "ip1"
  type: "InnerProduct"
  bottom: "pool2"
  top: "ip1"
  param {
    lr_mult: 1
  }
  param {
    lr_mult: 2
  }
  inner_product_param {
    num_output: 500
    weight_filler {
      type: "xavier"
    }
    bias_filler {
      type: "constant"
    }
  }
}
layer {
  name: "relu1"
  type: "ReLU"
  bottom: "ip1"
  top: "ip1"
}
layer {
  name: "ip2"
  type: "InnerProduct"
  bottom: "ip1"
  top: "ip2"
  param {
    lr_mult: 1
  }
  param {
    lr_mult: 2
  }
  inner_product_param {
    num_output: 10
    weight_filler {
      type: "xavier"
    }
    bias_filler {
      type: "constant"
    }
  }
}
layer {
  name: "accuracy"
  type: "Accuracy"
  bottom: "ip2"
  bottom: "label"
  top: "accuracy"
  include {
    phase: TEST
  }
}
layer {
  name: "loss"
  type: "SoftmaxWithLoss"
  bottom: "ip2"
  bottom: "label"
  top: "loss"
}
I0307 01:00:17.775642 3567440832 layer_factory.hpp:77] Creating layer mnist
I0307 01:00:17.775856 3567440832 net.cpp:100] Creating Layer mnist
I0307 01:00:17.775890 3567440832 net.cpp:408] mnist -> data
I0307 01:00:17.775918 3567440832 net.cpp:408] mnist -> label
I0307 01:00:17.776069 153571328 db_lmdb.cpp:35] Opened lmdb data/mnist/84x28_testing_images_+0_lmdb
I0307 01:00:17.776172 3567440832 data_layer.cpp:41] output data size: 100,3,28,84
I0307 01:00:17.788154 3567440832 net.cpp:150] Setting up mnist
I0307 01:00:17.788238 3567440832 net.cpp:157] Top shape: 100 3 28 84 (705600)
I0307 01:00:17.788250 3567440832 net.cpp:157] Top shape: 100 (100)
I0307 01:00:17.788259 3567440832 net.cpp:165] Memory required for data: 2822800
I0307 01:00:17.788275 3567440832 layer_factory.hpp:77] Creating layer label_mnist_1_split
I0307 01:00:17.788334 3567440832 net.cpp:100] Creating Layer label_mnist_1_split
I0307 01:00:17.788360 3567440832 net.cpp:434] label_mnist_1_split <- label
I0307 01:00:17.788377 3567440832 net.cpp:408] label_mnist_1_split -> label_mnist_1_split_0
I0307 01:00:17.788404 3567440832 net.cpp:408] label_mnist_1_split -> label_mnist_1_split_1
I0307 01:00:17.788450 3567440832 net.cpp:150] Setting up label_mnist_1_split
I0307 01:00:17.788476 3567440832 net.cpp:157] Top shape: 100 (100)
I0307 01:00:17.788493 3567440832 net.cpp:157] Top shape: 100 (100)
I0307 01:00:17.788506 3567440832 net.cpp:165] Memory required for data: 2823600
I0307 01:00:17.788661 3567440832 layer_factory.hpp:77] Creating layer conv1
I0307 01:00:17.788723 3567440832 net.cpp:100] Creating Layer conv1
I0307 01:00:17.788745 3567440832 net.cpp:434] conv1 <- data
I0307 01:00:17.788764 3567440832 net.cpp:408] conv1 -> conv1
I0307 01:00:17.788893 3567440832 net.cpp:150] Setting up conv1
I0307 01:00:17.788907 3567440832 net.cpp:157] Top shape: 100 20 24 80 (3840000)
I0307 01:00:17.788918 3567440832 net.cpp:165] Memory required for data: 18183600
I0307 01:00:17.788933 3567440832 layer_factory.hpp:77] Creating layer pool1
I0307 01:00:17.788942 3567440832 net.cpp:100] Creating Layer pool1
I0307 01:00:17.788949 3567440832 net.cpp:434] pool1 <- conv1
I0307 01:00:17.788957 3567440832 net.cpp:408] pool1 -> pool1
I0307 01:00:17.788978 3567440832 net.cpp:150] Setting up pool1
I0307 01:00:17.788988 3567440832 net.cpp:157] Top shape: 100 20 12 40 (960000)
I0307 01:00:17.789000 3567440832 net.cpp:165] Memory required for data: 22023600
I0307 01:00:17.789007 3567440832 layer_factory.hpp:77] Creating layer conv2
I0307 01:00:17.789028 3567440832 net.cpp:100] Creating Layer conv2
I0307 01:00:17.789046 3567440832 net.cpp:434] conv2 <- pool1
I0307 01:00:17.789062 3567440832 net.cpp:408] conv2 -> conv2
I0307 01:00:17.789685 3567440832 net.cpp:150] Setting up conv2
I0307 01:00:17.789731 3567440832 net.cpp:157] Top shape: 100 50 8 36 (1440000)
I0307 01:00:17.789746 3567440832 net.cpp:165] Memory required for data: 27783600
I0307 01:00:17.789769 3567440832 layer_factory.hpp:77] Creating layer pool2
I0307 01:00:17.789793 3567440832 net.cpp:100] Creating Layer pool2
I0307 01:00:17.789803 3567440832 net.cpp:434] pool2 <- conv2
I0307 01:00:17.789815 3567440832 net.cpp:408] pool2 -> pool2
I0307 01:00:17.789834 3567440832 net.cpp:150] Setting up pool2
I0307 01:00:17.789840 3567440832 net.cpp:157] Top shape: 100 50 4 18 (360000)
I0307 01:00:17.789849 3567440832 net.cpp:165] Memory required for data: 29223600
I0307 01:00:17.789855 3567440832 layer_factory.hpp:77] Creating layer ip1
I0307 01:00:17.789865 3567440832 net.cpp:100] Creating Layer ip1
I0307 01:00:17.789872 3567440832 net.cpp:434] ip1 <- pool2
I0307 01:00:17.789881 3567440832 net.cpp:408] ip1 -> ip1
I0307 01:00:17.811061 3567440832 net.cpp:150] Setting up ip1
I0307 01:00:17.811089 3567440832 net.cpp:157] Top shape: 100 500 (50000)
I0307 01:00:17.811098 3567440832 net.cpp:165] Memory required for data: 29423600
I0307 01:00:17.811113 3567440832 layer_factory.hpp:77] Creating layer relu1
I0307 01:00:17.811125 3567440832 net.cpp:100] Creating Layer relu1
I0307 01:00:17.811133 3567440832 net.cpp:434] relu1 <- ip1
I0307 01:00:17.811142 3567440832 net.cpp:395] relu1 -> ip1 (in-place)
I0307 01:00:17.811156 3567440832 net.cpp:150] Setting up relu1
I0307 01:00:17.811163 3567440832 net.cpp:157] Top shape: 100 500 (50000)
I0307 01:00:17.811172 3567440832 net.cpp:165] Memory required for data: 29623600
I0307 01:00:17.811177 3567440832 layer_factory.hpp:77] Creating layer ip2
I0307 01:00:17.811194 3567440832 net.cpp:100] Creating Layer ip2
I0307 01:00:17.811203 3567440832 net.cpp:434] ip2 <- ip1
I0307 01:00:17.811211 3567440832 net.cpp:408] ip2 -> ip2
I0307 01:00:17.811300 3567440832 net.cpp:150] Setting up ip2
I0307 01:00:17.811309 3567440832 net.cpp:157] Top shape: 100 10 (1000)
I0307 01:00:17.811316 3567440832 net.cpp:165] Memory required for data: 29627600
I0307 01:00:17.811326 3567440832 layer_factory.hpp:77] Creating layer ip2_ip2_0_split
I0307 01:00:17.811336 3567440832 net.cpp:100] Creating Layer ip2_ip2_0_split
I0307 01:00:17.811344 3567440832 net.cpp:434] ip2_ip2_0_split <- ip2
I0307 01:00:17.811357 3567440832 net.cpp:408] ip2_ip2_0_split -> ip2_ip2_0_split_0
I0307 01:00:17.811370 3567440832 net.cpp:408] ip2_ip2_0_split -> ip2_ip2_0_split_1
I0307 01:00:17.811384 3567440832 net.cpp:150] Setting up ip2_ip2_0_split
I0307 01:00:17.811393 3567440832 net.cpp:157] Top shape: 100 10 (1000)
I0307 01:00:17.811401 3567440832 net.cpp:157] Top shape: 100 10 (1000)
I0307 01:00:17.811409 3567440832 net.cpp:165] Memory required for data: 29635600
I0307 01:00:17.811444 3567440832 layer_factory.hpp:77] Creating layer accuracy
I0307 01:00:17.811461 3567440832 net.cpp:100] Creating Layer accuracy
I0307 01:00:17.811470 3567440832 net.cpp:434] accuracy <- ip2_ip2_0_split_0
I0307 01:00:17.811480 3567440832 net.cpp:434] accuracy <- label_mnist_1_split_0
I0307 01:00:17.811489 3567440832 net.cpp:408] accuracy -> accuracy
…
