…
I0227 23:11:23.389278 3567440832 net.cpp:322] The NetState phase (0) differed from the phase (1) specified by a rule in layer mnist
I0227 23:11:23.389300 3567440832 net.cpp:322] The NetState phase (0) differed from the phase (1) specified by a rule in layer accuracy
I0227 23:11:23.389312 3567440832 net.cpp:58] Initializing net from parameters: 
name: "LeNet"
state {
  phase: TRAIN
  level: 0
  stage: ""
}
layer {
  name: "mnist"
  type: "Data"
  top: "data"
  top: "label"
  include {
    phase: TRAIN
  }
  transform_param {
    scale: 0.00390625
  }
  data_param {
    source: "data/mnist/training_equations_8_9_lmdb"
    batch_size: 64
    backend: LMDB
  }
}
layer {
  name: "conv1"
  type: "Convolution"
  bottom: "data"
  top: "conv1"
  param {
    lr_mult: 1
  }
  param {
    lr_mult: 2
  }
  convolution_param {
    num_output: 20
    kernel_size: 5
    stride: 1
    weight_filler {
      type: "xavier"
    }
    bias_filler {
      type: "constant"
    }
  }
}
layer {
  name: "pool1"
  type: "Pooling"
  bottom: "conv1"
  top: "pool1"
  pooling_param {
    pool: MAX
    kernel_size: 2
    stride: 2
  }
}
layer {
  name: "conv2"
  type: "Convolution"
  bottom: "pool1"
  top: "conv2"
  param {
    lr_mult: 1
  }
  param {
    lr_mult: 2
  }
  convolution_param {
    num_output: 50
    kernel_size: 5
    stride: 1
    weight_filler {
      type: "xavier"
    }
    bias_filler {
      type: "constant"
    }
  }
}
layer {
  name: "pool2"
  type: "Pooling"
  bottom: "conv2"
  top: "pool2"
  pooling_param {
    pool: MAX
    kernel_size: 2
    stride: 2
  }
}
layer {
  name: "ip1"
  type: "InnerProduct"
  bottom: "pool2"
  top: "ip1"
  param {
    lr_mult: 1
  }
  param {
    lr_mult: 2
  }
  inner_product_param {
    num_output: 500
    weight_filler {
      type: "xavier"
    }
    bias_filler {
      type: "constant"
    }
  }
}
layer {
  name: "relu1"
  type: "ReLU"
  bottom: "ip1"
  top: "ip1"
}
layer {
  name: "ip2"
  type: "InnerProduct"
  bottom: "ip1"
  top: "ip2"
  param {
    lr_mult: 1
  }
  param {
    lr_mult: 2
  }
  inner_product_param {
    num_output: 10
    weight_filler {
      type: "xavier"
    }
    bias_filler {
      type: "constant"
    }
  }
}
layer {
  name: "loss"
  type: "SoftmaxWithLoss"
  bottom: "ip2"
  bottom: "label"
  top: "loss"
}
I0227 23:11:23.389441 3567440832 layer_factory.hpp:77] Creating layer mnist
I0227 23:11:23.393875 3567440832 net.cpp:100] Creating Layer mnist
I0227 23:11:23.393889 3567440832 net.cpp:408] mnist -> data
I0227 23:11:23.393914 3567440832 net.cpp:408] mnist -> label
I0227 23:11:23.394289 224944128 db_lmdb.cpp:35] Opened lmdb data/mnist/training_equations_8_9_lmdb
I0227 23:11:23.394421 3567440832 data_layer.cpp:41] output data size: 64,3,28,84
I0227 23:11:23.398838 3567440832 net.cpp:150] Setting up mnist
I0227 23:11:23.398885 3567440832 net.cpp:157] Top shape: 64 3 28 84 (451584)
I0227 23:11:23.398896 3567440832 net.cpp:157] Top shape: 64 (64)
I0227 23:11:23.398908 3567440832 net.cpp:165] Memory required for data: 1806592
I0227 23:11:23.398921 3567440832 layer_factory.hpp:77] Creating layer conv1
I0227 23:11:23.399029 3567440832 net.cpp:100] Creating Layer conv1
I0227 23:11:23.399039 3567440832 net.cpp:434] conv1 <- data
I0227 23:11:23.399050 3567440832 net.cpp:408] conv1 -> conv1
I0227 23:11:23.399276 3567440832 net.cpp:150] Setting up conv1
I0227 23:11:23.399305 3567440832 net.cpp:157] Top shape: 64 20 24 80 (2457600)
I0227 23:11:23.399320 3567440832 net.cpp:165] Memory required for data: 11636992
I0227 23:11:23.399353 3567440832 layer_factory.hpp:77] Creating layer pool1
I0227 23:11:23.399396 3567440832 net.cpp:100] Creating Layer pool1
I0227 23:11:23.399430 3567440832 net.cpp:434] pool1 <- conv1
I0227 23:11:23.399454 3567440832 net.cpp:408] pool1 -> pool1
I0227 23:11:23.399495 3567440832 net.cpp:150] Setting up pool1
I0227 23:11:23.399520 3567440832 net.cpp:157] Top shape: 64 20 12 40 (614400)
I0227 23:11:23.399534 3567440832 net.cpp:165] Memory required for data: 14094592
I0227 23:11:23.399554 3567440832 layer_factory.hpp:77] Creating layer conv2
I0227 23:11:23.399590 3567440832 net.cpp:100] Creating Layer conv2
I0227 23:11:23.399605 3567440832 net.cpp:434] conv2 <- pool1
I0227 23:11:23.399626 3567440832 net.cpp:408] conv2 -> conv2
I0227 23:11:23.400130 3567440832 net.cpp:150] Setting up conv2
I0227 23:11:23.400147 3567440832 net.cpp:157] Top shape: 64 50 8 36 (921600)
I0227 23:11:23.400156 3567440832 net.cpp:165] Memory required for data: 17780992
I0227 23:11:23.400172 3567440832 layer_factory.hpp:77] Creating layer pool2
I0227 23:11:23.400189 3567440832 net.cpp:100] Creating Layer pool2
I0227 23:11:23.400197 3567440832 net.cpp:434] pool2 <- conv2
I0227 23:11:23.400203 3567440832 net.cpp:408] pool2 -> pool2
I0227 23:11:23.400223 3567440832 net.cpp:150] Setting up pool2
I0227 23:11:23.400230 3567440832 net.cpp:157] Top shape: 64 50 4 18 (230400)
I0227 23:11:23.400238 3567440832 net.cpp:165] Memory required for data: 18702592
I0227 23:11:23.400250 3567440832 layer_factory.hpp:77] Creating layer ip1
I0227 23:11:23.400261 3567440832 net.cpp:100] Creating Layer ip1
I0227 23:11:23.400267 3567440832 net.cpp:434] ip1 <- pool2
I0227 23:11:23.400285 3567440832 net.cpp:408] ip1 -> ip1
I0227 23:11:23.421619 3567440832 net.cpp:150] Setting up ip1
I0227 23:11:23.421653 3567440832 net.cpp:157] Top shape: 64 500 (32000)
I0227 23:11:23.421685 3567440832 net.cpp:165] Memory required for data: 18830592
I0227 23:11:23.421705 3567440832 layer_factory.hpp:77] Creating layer relu1
I0227 23:11:23.421725 3567440832 net.cpp:100] Creating Layer relu1
I0227 23:11:23.421732 3567440832 net.cpp:434] relu1 <- ip1
I0227 23:11:23.421744 3567440832 net.cpp:395] relu1 -> ip1 (in-place)
I0227 23:11:23.421757 3567440832 net.cpp:150] Setting up relu1
I0227 23:11:23.421763 3567440832 net.cpp:157] Top shape: 64 500 (32000)
I0227 23:11:23.421771 3567440832 net.cpp:165] Memory required for data: 18958592
I0227 23:11:23.421777 3567440832 layer_factory.hpp:77] Creating layer ip2
I0227 23:11:23.421787 3567440832 net.cpp:100] Creating Layer ip2
I0227 23:11:23.421793 3567440832 net.cpp:434] ip2 <- ip1
I0227 23:11:23.421802 3567440832 net.cpp:408] ip2 -> ip2
I0227 23:11:23.421895 3567440832 net.cpp:150] Setting up ip2
I0227 23:11:23.421905 3567440832 net.cpp:157] Top shape: 64 10 (640)
I0227 23:11:23.421911 3567440832 net.cpp:165] Memory required for data: 18961152
I0227 23:11:23.421921 3567440832 layer_factory.hpp:77] Creating layer loss
I0227 23:11:23.421938 3567440832 net.cpp:100] Creating Layer loss
I0227 23:11:23.421947 3567440832 net.cpp:434] loss <- ip2
I0227 23:11:23.421954 3567440832 net.cpp:434] loss <- label
I0227 23:11:23.421962 3567440832 net.cpp:408] loss -> loss
…
I0227 23:11:23.422484 3567440832 solver.cpp:181] Creating test net (#0) specified by net file: examples/mnist/lenet_train_test.prototxt
I0227 23:11:23.422528 3567440832 net.cpp:322] The NetState phase (1) differed from the phase (0) specified by a rule in layer mnist
I0227 23:11:23.422546 3567440832 net.cpp:58] Initializing net from parameters: 
name: "LeNet"
state {
  phase: TEST
}
layer {
  name: "mnist"
  type: "Data"
  top: "data"
  top: "label"
  include {
    phase: TEST
  }
  transform_param {
    scale: 0.00390625
  }
  data_param {
    source: "data/mnist/testing_equations_8_9_lmdb"
    batch_size: 100
    backend: LMDB
  }
}
layer {
  name: "conv1"
  type: "Convolution"
  bottom: "data"
  top: "conv1"
  param {
    lr_mult: 1
  }
  param {
    lr_mult: 2
  }
  convolution_param {
    num_output: 20
    kernel_size: 5
    stride: 1
    weight_filler {
      type: "xavier"
    }
    bias_filler {
      type: "constant"
    }
  }
}
layer {
  name: "pool1"
  type: "Pooling"
  bottom: "conv1"
  top: "pool1"
  pooling_param {
    pool: MAX
    kernel_size: 2
    stride: 2
  }
}
layer {
  name: "conv2"
  type: "Convolution"
  bottom: "pool1"
  top: "conv2"
  param {
    lr_mult: 1
  }
  param {
    lr_mult: 2
  }
  convolution_param {
    num_output: 50
    kernel_size: 5
    stride: 1
    weight_filler {
      type: "xavier"
    }
    bias_filler {
      type: "constant"
    }
  }
}
layer {
  name: "pool2"
  type: "Pooling"
  bottom: "conv2"
  top: "pool2"
  pooling_param {
    pool: MAX
    kernel_size: 2
    stride: 2
  }
}
layer {
  name: "ip1"
  type: "InnerProduct"
  bottom: "pool2"
  top: "ip1"
  param {
    lr_mult: 1
  }
  param {
    lr_mult: 2
  }
  inner_product_param {
    num_output: 500
    weight_filler {
      type: "xavier"
    }
    bias_filler {
      type: "constant"
    }
  }
}
layer {
  name: "relu1"
  type: "ReLU"
  bottom: "ip1"
  top: "ip1"
}
layer {
  name: "ip2"
  type: "InnerProduct"
  bottom: "ip1"
  top: "ip2"
  param {
    lr_mult: 1
  }
  param {
    lr_mult: 2
  }
  inner_product_param {
    num_output: 10
    weight_filler {
      type: "xavier"
    }
    bias_filler {
      type: "constant"
    }
  }
}
layer {
  name: "accuracy"
  type: "Accuracy"
  bottom: "ip2"
  bottom: "label"
  top: "accuracy"
  include {
    phase: TEST
  }
}
layer {
  name: "loss"
  type: "SoftmaxWithLoss"
  bottom: "ip2"
  bottom: "label"
  top: "loss"
}
I0227 23:11:23.422730 3567440832 layer_factory.hpp:77] Creating layer mnist
I0227 23:11:23.422878 3567440832 net.cpp:100] Creating Layer mnist
I0227 23:11:23.422911 3567440832 net.cpp:408] mnist -> data
I0227 23:11:23.422938 3567440832 net.cpp:408] mnist -> label
I0227 23:11:23.423177 226017280 db_lmdb.cpp:35] Opened lmdb data/mnist/testing_equations_8_9_lmdb
I0227 23:11:23.423243 3567440832 data_layer.cpp:41] output data size: 100,3,28,84
I0227 23:11:23.427763 3567440832 net.cpp:150] Setting up mnist
I0227 23:11:23.427793 3567440832 net.cpp:157] Top shape: 100 3 28 84 (705600)
I0227 23:11:23.427819 3567440832 net.cpp:157] Top shape: 100 (100)
I0227 23:11:23.427834 3567440832 net.cpp:165] Memory required for data: 2822800
I0227 23:11:23.427842 3567440832 layer_factory.hpp:77] Creating layer label_mnist_1_split
I0227 23:11:23.427863 3567440832 net.cpp:100] Creating Layer label_mnist_1_split
I0227 23:11:23.427893 3567440832 net.cpp:434] label_mnist_1_split <- label
I0227 23:11:23.427956 3567440832 net.cpp:408] label_mnist_1_split -> label_mnist_1_split_0
I0227 23:11:23.427987 3567440832 net.cpp:408] label_mnist_1_split -> label_mnist_1_split_1
I0227 23:11:23.428030 3567440832 net.cpp:150] Setting up label_mnist_1_split
I0227 23:11:23.428064 3567440832 net.cpp:157] Top shape: 100 (100)
I0227 23:11:23.428128 3567440832 net.cpp:157] Top shape: 100 (100)
I0227 23:11:23.428171 3567440832 net.cpp:165] Memory required for data: 2823600
I0227 23:11:23.428222 3567440832 layer_factory.hpp:77] Creating layer conv1
I0227 23:11:23.428242 3567440832 net.cpp:100] Creating Layer conv1
I0227 23:11:23.428268 3567440832 net.cpp:434] conv1 <- data
I0227 23:11:23.428294 3567440832 net.cpp:408] conv1 -> conv1
I0227 23:11:23.428405 3567440832 net.cpp:150] Setting up conv1
I0227 23:11:23.428421 3567440832 net.cpp:157] Top shape: 100 20 24 80 (3840000)
I0227 23:11:23.428452 3567440832 net.cpp:165] Memory required for data: 18183600
I0227 23:11:23.428493 3567440832 layer_factory.hpp:77] Creating layer pool1
I0227 23:11:23.428527 3567440832 net.cpp:100] Creating Layer pool1
I0227 23:11:23.428558 3567440832 net.cpp:434] pool1 <- conv1
I0227 23:11:23.428577 3567440832 net.cpp:408] pool1 -> pool1
I0227 23:11:23.428647 3567440832 net.cpp:150] Setting up pool1
I0227 23:11:23.428676 3567440832 net.cpp:157] Top shape: 100 20 12 40 (960000)
I0227 23:11:23.428695 3567440832 net.cpp:165] Memory required for data: 22023600
I0227 23:11:23.428746 3567440832 layer_factory.hpp:77] Creating layer conv2
I0227 23:11:23.428783 3567440832 net.cpp:100] Creating Layer conv2
I0227 23:11:23.428822 3567440832 net.cpp:434] conv2 <- pool1
I0227 23:11:23.428863 3567440832 net.cpp:408] conv2 -> conv2
I0227 23:11:23.429414 3567440832 net.cpp:150] Setting up conv2
I0227 23:11:23.429431 3567440832 net.cpp:157] Top shape: 100 50 8 36 (1440000)
I0227 23:11:23.429441 3567440832 net.cpp:165] Memory required for data: 27783600
I0227 23:11:23.429474 3567440832 layer_factory.hpp:77] Creating layer pool2
I0227 23:11:23.429533 3567440832 net.cpp:100] Creating Layer pool2
I0227 23:11:23.429561 3567440832 net.cpp:434] pool2 <- conv2
I0227 23:11:23.429590 3567440832 net.cpp:408] pool2 -> pool2
I0227 23:11:23.429649 3567440832 net.cpp:150] Setting up pool2
I0227 23:11:23.429668 3567440832 net.cpp:157] Top shape: 100 50 4 18 (360000)
I0227 23:11:23.429697 3567440832 net.cpp:165] Memory required for data: 29223600
I0227 23:11:23.429704 3567440832 layer_factory.hpp:77] Creating layer ip1
I0227 23:11:23.429754 3567440832 net.cpp:100] Creating Layer ip1
I0227 23:11:23.429795 3567440832 net.cpp:434] ip1 <- pool2
I0227 23:11:23.429901 3567440832 net.cpp:408] ip1 -> ip1
I0227 23:11:23.446492 3567440832 net.cpp:150] Setting up ip1
I0227 23:11:23.446566 3567440832 net.cpp:157] Top shape: 100 500 (50000)
I0227 23:11:23.446583 3567440832 net.cpp:165] Memory required for data: 29423600
I0227 23:11:23.446599 3567440832 layer_factory.hpp:77] Creating layer relu1
I0227 23:11:23.446632 3567440832 net.cpp:100] Creating Layer relu1
I0227 23:11:23.446666 3567440832 net.cpp:434] relu1 <- ip1
I0227 23:11:23.446709 3567440832 net.cpp:395] relu1 -> ip1 (in-place)
I0227 23:11:23.446743 3567440832 net.cpp:150] Setting up relu1
I0227 23:11:23.446754 3567440832 net.cpp:157] Top shape: 100 500 (50000)
I0227 23:11:23.446774 3567440832 net.cpp:165] Memory required for data: 29623600
I0227 23:11:23.446790 3567440832 layer_factory.hpp:77] Creating layer ip2
I0227 23:11:23.446815 3567440832 net.cpp:100] Creating Layer ip2
I0227 23:11:23.446830 3567440832 net.cpp:434] ip2 <- ip1
I0227 23:11:23.446840 3567440832 net.cpp:408] ip2 -> ip2
I0227 23:11:23.446945 3567440832 net.cpp:150] Setting up ip2
I0227 23:11:23.446959 3567440832 net.cpp:157] Top shape: 100 10 (1000)
I0227 23:11:23.446975 3567440832 net.cpp:165] Memory required for data: 29627600
I0227 23:11:23.446987 3567440832 layer_factory.hpp:77] Creating layer ip2_ip2_0_split
I0227 23:11:23.446998 3567440832 net.cpp:100] Creating Layer ip2_ip2_0_split
I0227 23:11:23.447005 3567440832 net.cpp:434] ip2_ip2_0_split <- ip2
I0227 23:11:23.447026 3567440832 net.cpp:408] ip2_ip2_0_split -> ip2_ip2_0_split_0
I0227 23:11:23.447042 3567440832 net.cpp:408] ip2_ip2_0_split -> ip2_ip2_0_split_1
I0227 23:11:23.447057 3567440832 net.cpp:150] Setting up ip2_ip2_0_split
I0227 23:11:23.447062 3567440832 net.cpp:157] Top shape: 100 10 (1000)
I0227 23:11:23.447065 3567440832 net.cpp:157] Top shape: 100 10 (1000)
I0227 23:11:23.447070 3567440832 net.cpp:165] Memory required for data: 29635600
I0227 23:11:23.447124 3567440832 layer_factory.hpp:77] Creating layer accuracy
I0227 23:11:23.447139 3567440832 net.cpp:100] Creating Layer accuracy
I0227 23:11:23.447149 3567440832 net.cpp:434] accuracy <- ip2_ip2_0_split_0
I0227 23:11:23.447154 3567440832 net.cpp:434] accuracy <- label_mnist_1_split_0
I0227 23:11:23.447160 3567440832 net.cpp:408] accuracy -> accuracy
…
