…
I0228 00:58:18.148838 3567440832 net.cpp:322] The NetState phase (0) differed from the phase (1) specified by a rule in layer mnist
I0228 00:58:18.148874 3567440832 net.cpp:322] The NetState phase (0) differed from the phase (1) specified by a rule in layer accuracy
I0228 00:58:18.148891 3567440832 net.cpp:58] Initializing net from parameters: 
name: "LeNet"
state {
  phase: TRAIN
  level: 0
  stage: ""
}
layer {
  name: "mnist"
  type: "Data"
  top: "data"
  top: "label"
  include {
    phase: TRAIN
  }
  transform_param {
    scale: 0.00390625
  }
  data_param {
    source: "data/mnist/training_equations_8_9_10_lmdb"
    batch_size: 64
    backend: LMDB
  }
}
layer {
  name: "conv1"
  type: "Convolution"
  bottom: "data"
  top: "conv1"
  param {
    lr_mult: 1
  }
  param {
    lr_mult: 2
  }
  convolution_param {
    num_output: 20
    kernel_size: 5
    stride: 1
    weight_filler {
      type: "xavier"
    }
    bias_filler {
      type: "constant"
    }
  }
}
layer {
  name: "pool1"
  type: "Pooling"
  bottom: "conv1"
  top: "pool1"
  pooling_param {
    pool: MAX
    kernel_size: 2
    stride: 2
  }
}
layer {
  name: "conv2"
  type: "Convolution"
  bottom: "pool1"
  top: "conv2"
  param {
    lr_mult: 1
  }
  param {
    lr_mult: 2
  }
  convolution_param {
    num_output: 50
    kernel_size: 5
    stride: 1
    weight_filler {
      type: "xavier"
    }
    bias_filler {
      type: "constant"
    }
  }
}
layer {
  name: "pool2"
  type: "Pooling"
  bottom: "conv2"
  top: "pool2"
  pooling_param {
    pool: MAX
    kernel_size: 2
    stride: 2
  }
}
layer {
  name: "ip1"
  type: "InnerProduct"
  bottom: "pool2"
  top: "ip1"
  param {
    lr_mult: 1
  }
  param {
    lr_mult: 2
  }
  inner_product_param {
    num_output: 500
    weight_filler {
      type: "xavier"
    }
    bias_filler {
      type: "constant"
    }
  }
}
layer {
  name: "relu1"
  type: "ReLU"
  bottom: "ip1"
  top: "ip1"
}
layer {
  name: "ip2"
  type: "InnerProduct"
  bottom: "ip1"
  top: "ip2"
  param {
    lr_mult: 1
  }
  param {
    lr_mult: 2
  }
  inner_product_param {
    num_output: 10
    weight_filler {
      type: "xavier"
    }
    bias_filler {
      type: "constant"
    }
  }
}
layer {
  name: "loss"
  type: "SoftmaxWithLoss"
  bottom: "ip2"
  bottom: "label"
  top: "loss"
}
I0228 00:58:18.149034 3567440832 layer_factory.hpp:77] Creating layer mnist
I0228 00:58:18.153475 3567440832 net.cpp:100] Creating Layer mnist
I0228 00:58:18.153491 3567440832 net.cpp:408] mnist -> data
I0228 00:58:18.153530 3567440832 net.cpp:408] mnist -> label
I0228 00:58:18.153681 240320512 db_lmdb.cpp:35] Opened lmdb data/mnist/training_equations_8_9_10_lmdb
I0228 00:58:18.153795 3567440832 data_layer.cpp:41] output data size: 64,3,28,84
I0228 00:58:18.157120 3567440832 net.cpp:150] Setting up mnist
I0228 00:58:18.157166 3567440832 net.cpp:157] Top shape: 64 3 28 84 (451584)
I0228 00:58:18.157177 3567440832 net.cpp:157] Top shape: 64 (64)
I0228 00:58:18.157187 3567440832 net.cpp:165] Memory required for data: 1806592
I0228 00:58:18.157203 3567440832 layer_factory.hpp:77] Creating layer conv1
I0228 00:58:18.157253 3567440832 net.cpp:100] Creating Layer conv1
I0228 00:58:18.157263 3567440832 net.cpp:434] conv1 <- data
I0228 00:58:18.157280 3567440832 net.cpp:408] conv1 -> conv1
I0228 00:58:18.157402 3567440832 net.cpp:150] Setting up conv1
I0228 00:58:18.157413 3567440832 net.cpp:157] Top shape: 64 20 24 80 (2457600)
I0228 00:58:18.157423 3567440832 net.cpp:165] Memory required for data: 11636992
I0228 00:58:18.157439 3567440832 layer_factory.hpp:77] Creating layer pool1
I0228 00:58:18.157485 3567440832 net.cpp:100] Creating Layer pool1
I0228 00:58:18.157493 3567440832 net.cpp:434] pool1 <- conv1
I0228 00:58:18.157503 3567440832 net.cpp:408] pool1 -> pool1
I0228 00:58:18.157526 3567440832 net.cpp:150] Setting up pool1
I0228 00:58:18.157534 3567440832 net.cpp:157] Top shape: 64 20 12 40 (614400)
I0228 00:58:18.157544 3567440832 net.cpp:165] Memory required for data: 14094592
I0228 00:58:18.157552 3567440832 layer_factory.hpp:77] Creating layer conv2
I0228 00:58:18.157565 3567440832 net.cpp:100] Creating Layer conv2
I0228 00:58:18.157572 3567440832 net.cpp:434] conv2 <- pool1
I0228 00:58:18.157582 3567440832 net.cpp:408] conv2 -> conv2
I0228 00:58:18.158191 3567440832 net.cpp:150] Setting up conv2
I0228 00:58:18.158213 3567440832 net.cpp:157] Top shape: 64 50 8 36 (921600)
I0228 00:58:18.158223 3567440832 net.cpp:165] Memory required for data: 17780992
I0228 00:58:18.158238 3567440832 layer_factory.hpp:77] Creating layer pool2
I0228 00:58:18.158253 3567440832 net.cpp:100] Creating Layer pool2
I0228 00:58:18.158259 3567440832 net.cpp:434] pool2 <- conv2
I0228 00:58:18.158268 3567440832 net.cpp:408] pool2 -> pool2
I0228 00:58:18.158283 3567440832 net.cpp:150] Setting up pool2
I0228 00:58:18.158289 3567440832 net.cpp:157] Top shape: 64 50 4 18 (230400)
I0228 00:58:18.158296 3567440832 net.cpp:165] Memory required for data: 18702592
I0228 00:58:18.158303 3567440832 layer_factory.hpp:77] Creating layer ip1
I0228 00:58:18.158313 3567440832 net.cpp:100] Creating Layer ip1
I0228 00:58:18.158321 3567440832 net.cpp:434] ip1 <- pool2
I0228 00:58:18.158336 3567440832 net.cpp:408] ip1 -> ip1
I0228 00:58:18.179327 3567440832 net.cpp:150] Setting up ip1
I0228 00:58:18.179352 3567440832 net.cpp:157] Top shape: 64 500 (32000)
I0228 00:58:18.179359 3567440832 net.cpp:165] Memory required for data: 18830592
I0228 00:58:18.179374 3567440832 layer_factory.hpp:77] Creating layer relu1
I0228 00:58:18.179400 3567440832 net.cpp:100] Creating Layer relu1
I0228 00:58:18.179409 3567440832 net.cpp:434] relu1 <- ip1
I0228 00:58:18.179419 3567440832 net.cpp:395] relu1 -> ip1 (in-place)
I0228 00:58:18.179432 3567440832 net.cpp:150] Setting up relu1
I0228 00:58:18.179440 3567440832 net.cpp:157] Top shape: 64 500 (32000)
I0228 00:58:18.179460 3567440832 net.cpp:165] Memory required for data: 18958592
I0228 00:58:18.179467 3567440832 layer_factory.hpp:77] Creating layer ip2
I0228 00:58:18.179477 3567440832 net.cpp:100] Creating Layer ip2
I0228 00:58:18.179483 3567440832 net.cpp:434] ip2 <- ip1
I0228 00:58:18.179491 3567440832 net.cpp:408] ip2 -> ip2
I0228 00:58:18.179600 3567440832 net.cpp:150] Setting up ip2
I0228 00:58:18.179611 3567440832 net.cpp:157] Top shape: 64 10 (640)
I0228 00:58:18.179620 3567440832 net.cpp:165] Memory required for data: 18961152
I0228 00:58:18.179630 3567440832 layer_factory.hpp:77] Creating layer loss
I0228 00:58:18.179646 3567440832 net.cpp:100] Creating Layer loss
I0228 00:58:18.179653 3567440832 net.cpp:434] loss <- ip2
I0228 00:58:18.179661 3567440832 net.cpp:434] loss <- label
I0228 00:58:18.179672 3567440832 net.cpp:408] loss -> loss
…
I0228 00:58:18.180091 3567440832 solver.cpp:181] Creating test net (#0) specified by net file: examples/mnist/lenet_train_test.prototxt
I0228 00:58:18.180122 3567440832 net.cpp:322] The NetState phase (1) differed from the phase (0) specified by a rule in layer mnist
I0228 00:58:18.180141 3567440832 net.cpp:58] Initializing net from parameters: 
name: "LeNet"
state {
  phase: TEST
}
layer {
  name: "mnist"
  type: "Data"
  top: "data"
  top: "label"
  include {
    phase: TEST
  }
  transform_param {
    scale: 0.00390625
  }
  data_param {
    source: "data/mnist/testing_equations_8_9_10_lmdb"
    batch_size: 160
    backend: LMDB
  }
}
layer {
  name: "conv1"
  type: "Convolution"
  bottom: "data"
  top: "conv1"
  param {
    lr_mult: 1
  }
  param {
    lr_mult: 2
  }
  convolution_param {
    num_output: 20
    kernel_size: 5
    stride: 1
    weight_filler {
      type: "xavier"
    }
    bias_filler {
      type: "constant"
    }
  }
}
layer {
  name: "pool1"
  type: "Pooling"
  bottom: "conv1"
  top: "pool1"
  pooling_param {
    pool: MAX
    kernel_size: 2
    stride: 2
  }
}
layer {
  name: "conv2"
  type: "Convolution"
  bottom: "pool1"
  top: "conv2"
  param {
    lr_mult: 1
  }
  param {
    lr_mult: 2
  }
  convolution_param {
    num_output: 50
    kernel_size: 5
    stride: 1
    weight_filler {
      type: "xavier"
    }
    bias_filler {
      type: "constant"
    }
  }
}
layer {
  name: "pool2"
  type: "Pooling"
  bottom: "conv2"
  top: "pool2"
  pooling_param {
    pool: MAX
    kernel_size: 2
    stride: 2
  }
}
layer {
  name: "ip1"
  type: "InnerProduct"
  bottom: "pool2"
  top: "ip1"
  param {
    lr_mult: 1
  }
  param {
    lr_mult: 2
  }
  inner_product_param {
    num_output: 500
    weight_filler {
      type: "xavier"
    }
    bias_filler {
      type: "constant"
    }
  }
}
layer {
  name: "relu1"
  type: "ReLU"
  bottom: "ip1"
  top: "ip1"
}
layer {
  name: "ip2"
  type: "InnerProduct"
  bottom: "ip1"
  top: "ip2"
  param {
    lr_mult: 1
  }
  param {
    lr_mult: 2
  }
  inner_product_param {
    num_output: 10
    weight_filler {
      type: "xavier"
    }
    bias_filler {
      type: "constant"
    }
  }
}
layer {
  name: "accuracy"
  type: "Accuracy"
  bottom: "ip2"
  bottom: "label"
  top: "accuracy"
  include {
    phase: TEST
  }
}
layer {
  name: "loss"
  type: "SoftmaxWithLoss"
  bottom: "ip2"
  bottom: "label"
  top: "loss"
}
I0228 00:58:18.180318 3567440832 layer_factory.hpp:77] Creating layer mnist
I0228 00:58:18.180511 3567440832 net.cpp:100] Creating Layer mnist
I0228 00:58:18.180523 3567440832 net.cpp:408] mnist -> data
I0228 00:58:18.180536 3567440832 net.cpp:408] mnist -> label
I0228 00:58:18.180594 241393664 db_lmdb.cpp:35] Opened lmdb data/mnist/testing_equations_8_9_10_lmdb
I0228 00:58:18.180655 3567440832 data_layer.cpp:41] output data size: 160,3,28,84
I0228 00:58:18.190780 3567440832 net.cpp:150] Setting up mnist
I0228 00:58:18.190819 3567440832 net.cpp:157] Top shape: 160 3 28 84 (1128960)
I0228 00:58:18.190834 3567440832 net.cpp:157] Top shape: 160 (160)
I0228 00:58:18.190842 3567440832 net.cpp:165] Memory required for data: 4516480
I0228 00:58:18.190853 3567440832 layer_factory.hpp:77] Creating layer label_mnist_1_split
I0228 00:58:18.190877 3567440832 net.cpp:100] Creating Layer label_mnist_1_split
I0228 00:58:18.190886 3567440832 net.cpp:434] label_mnist_1_split <- label
I0228 00:58:18.190901 3567440832 net.cpp:408] label_mnist_1_split -> label_mnist_1_split_0
I0228 00:58:18.190922 3567440832 net.cpp:408] label_mnist_1_split -> label_mnist_1_split_1
I0228 00:58:18.190943 3567440832 net.cpp:150] Setting up label_mnist_1_split
I0228 00:58:18.190951 3567440832 net.cpp:157] Top shape: 160 (160)
I0228 00:58:18.190960 3567440832 net.cpp:157] Top shape: 160 (160)
I0228 00:58:18.190968 3567440832 net.cpp:165] Memory required for data: 4517760
I0228 00:58:18.191082 3567440832 layer_factory.hpp:77] Creating layer conv1
I0228 00:58:18.191130 3567440832 net.cpp:100] Creating Layer conv1
I0228 00:58:18.191165 3567440832 net.cpp:434] conv1 <- data
I0228 00:58:18.191200 3567440832 net.cpp:408] conv1 -> conv1
I0228 00:58:18.191315 3567440832 net.cpp:150] Setting up conv1
I0228 00:58:18.191323 3567440832 net.cpp:157] Top shape: 160 20 24 80 (6144000)
I0228 00:58:18.191332 3567440832 net.cpp:165] Memory required for data: 29093760
I0228 00:58:18.191346 3567440832 layer_factory.hpp:77] Creating layer pool1
I0228 00:58:18.191370 3567440832 net.cpp:100] Creating Layer pool1
I0228 00:58:18.191376 3567440832 net.cpp:434] pool1 <- conv1
I0228 00:58:18.191383 3567440832 net.cpp:408] pool1 -> pool1
I0228 00:58:18.191397 3567440832 net.cpp:150] Setting up pool1
I0228 00:58:18.191404 3567440832 net.cpp:157] Top shape: 160 20 12 40 (1536000)
I0228 00:58:18.191412 3567440832 net.cpp:165] Memory required for data: 35237760
I0228 00:58:18.191419 3567440832 layer_factory.hpp:77] Creating layer conv2
I0228 00:58:18.191432 3567440832 net.cpp:100] Creating Layer conv2
I0228 00:58:18.191439 3567440832 net.cpp:434] conv2 <- pool1
I0228 00:58:18.191452 3567440832 net.cpp:408] conv2 -> conv2
I0228 00:58:18.191849 3567440832 net.cpp:150] Setting up conv2
I0228 00:58:18.191857 3567440832 net.cpp:157] Top shape: 160 50 8 36 (2304000)
I0228 00:58:18.191865 3567440832 net.cpp:165] Memory required for data: 44453760
I0228 00:58:18.191876 3567440832 layer_factory.hpp:77] Creating layer pool2
I0228 00:58:18.191884 3567440832 net.cpp:100] Creating Layer pool2
I0228 00:58:18.191890 3567440832 net.cpp:434] pool2 <- conv2
I0228 00:58:18.191901 3567440832 net.cpp:408] pool2 -> pool2
I0228 00:58:18.191915 3567440832 net.cpp:150] Setting up pool2
I0228 00:58:18.191922 3567440832 net.cpp:157] Top shape: 160 50 4 18 (576000)
I0228 00:58:18.191931 3567440832 net.cpp:165] Memory required for data: 46757760
I0228 00:58:18.191936 3567440832 layer_factory.hpp:77] Creating layer ip1
I0228 00:58:18.191946 3567440832 net.cpp:100] Creating Layer ip1
I0228 00:58:18.191954 3567440832 net.cpp:434] ip1 <- pool2
I0228 00:58:18.191963 3567440832 net.cpp:408] ip1 -> ip1
I0228 00:58:18.214851 3567440832 net.cpp:150] Setting up ip1
I0228 00:58:18.214886 3567440832 net.cpp:157] Top shape: 160 500 (80000)
I0228 00:58:18.214896 3567440832 net.cpp:165] Memory required for data: 47077760
I0228 00:58:18.214911 3567440832 layer_factory.hpp:77] Creating layer relu1
I0228 00:58:18.214925 3567440832 net.cpp:100] Creating Layer relu1
I0228 00:58:18.214932 3567440832 net.cpp:434] relu1 <- ip1
I0228 00:58:18.214941 3567440832 net.cpp:395] relu1 -> ip1 (in-place)
I0228 00:58:18.214956 3567440832 net.cpp:150] Setting up relu1
I0228 00:58:18.214962 3567440832 net.cpp:157] Top shape: 160 500 (80000)
I0228 00:58:18.214970 3567440832 net.cpp:165] Memory required for data: 47397760
I0228 00:58:18.214979 3567440832 layer_factory.hpp:77] Creating layer ip2
I0228 00:58:18.214999 3567440832 net.cpp:100] Creating Layer ip2
I0228 00:58:18.215008 3567440832 net.cpp:434] ip2 <- ip1
I0228 00:58:18.215016 3567440832 net.cpp:408] ip2 -> ip2
I0228 00:58:18.215111 3567440832 net.cpp:150] Setting up ip2
I0228 00:58:18.215119 3567440832 net.cpp:157] Top shape: 160 10 (1600)
I0228 00:58:18.215127 3567440832 net.cpp:165] Memory required for data: 47404160
I0228 00:58:18.215137 3567440832 layer_factory.hpp:77] Creating layer ip2_ip2_0_split
I0228 00:58:18.215147 3567440832 net.cpp:100] Creating Layer ip2_ip2_0_split
I0228 00:58:18.215162 3567440832 net.cpp:434] ip2_ip2_0_split <- ip2
I0228 00:58:18.215175 3567440832 net.cpp:408] ip2_ip2_0_split -> ip2_ip2_0_split_0
I0228 00:58:18.215188 3567440832 net.cpp:408] ip2_ip2_0_split -> ip2_ip2_0_split_1
I0228 00:58:18.215203 3567440832 net.cpp:150] Setting up ip2_ip2_0_split
I0228 00:58:18.215209 3567440832 net.cpp:157] Top shape: 160 10 (1600)
I0228 00:58:18.215216 3567440832 net.cpp:157] Top shape: 160 10 (1600)
I0228 00:58:18.215224 3567440832 net.cpp:165] Memory required for data: 47416960
I0228 00:58:18.215250 3567440832 layer_factory.hpp:77] Creating layer accuracy
I0228 00:58:18.215265 3567440832 net.cpp:100] Creating Layer accuracy
I0228 00:58:18.215272 3567440832 net.cpp:434] accuracy <- ip2_ip2_0_split_0
I0228 00:58:18.215279 3567440832 net.cpp:434] accuracy <- label_mnist_1_split_0
I0228 00:58:18.215293 3567440832 net.cpp:408] accuracy -> accuracy
…
