…
I0226 01:36:10.037144 3567440832 net.cpp:322] The NetState phase (0) differed from the phase (1) specified by a rule in layer mnist
I0226 01:36:10.037161 3567440832 net.cpp:322] The NetState phase (0) differed from the phase (1) specified by a rule in layer accuracy
I0226 01:36:10.037170 3567440832 net.cpp:58] Initializing net from parameters: 
name: "LeNet"
state {
  phase: TRAIN
  level: 0
  stage: ""
}
layer {
  name: "mnist"
  type: "Data"
  top: "data"
  top: "label"
  include {
    phase: TRAIN
  }
  transform_param {
    scale: 0.00390625
  }
  data_param {
    source: "data/mnist/mnist_equation_train_10_lmdb"
    batch_size: 64
    backend: LMDB
  }
}
layer {
  name: "conv1"
  type: "Convolution"
  bottom: "data"
  top: "conv1"
  param {
    lr_mult: 1
  }
  param {
    lr_mult: 2
  }
  convolution_param {
    num_output: 20
    kernel_size: 5
    stride: 1
    weight_filler {
      type: "xavier"
    }
    bias_filler {
      type: "constant"
    }
  }
}
layer {
  name: "pool1"
  type: "Pooling"
  bottom: "conv1"
  top: "pool1"
  pooling_param {
    pool: MAX
    kernel_size: 2
    stride: 2
  }
}
layer {
  name: "conv2"
  type: "Convolution"
  bottom: "pool1"
  top: "conv2"
  param {
    lr_mult: 1
  }
  param {
    lr_mult: 2
  }
  convolution_param {
    num_output: 50
    kernel_size: 5
    stride: 1
    weight_filler {
      type: "xavier"
    }
    bias_filler {
      type: "constant"
    }
  }
}
layer {
  name: "pool2"
  type: "Pooling"
  bottom: "conv2"
  top: "pool2"
  pooling_param {
    pool: MAX
    kernel_size: 2
    stride: 2
  }
}
layer {
  name: "ip1"
  type: "InnerProduct"
  bottom: "pool2"
  top: "ip1"
  param {
    lr_mult: 1
  }
  param {
    lr_mult: 2
  }
  inner_product_param {
    num_output: 500
    weight_filler {
      type: "xavier"
    }
    bias_filler {
      type: "constant"
    }
  }
}
layer {
  name: "relu1"
  type: "ReLU"
  bottom: "ip1"
  top: "ip1"
}
layer {
  name: "ip2"
  type: "InnerProduct"
  bottom: "ip1"
  top: "ip2"
  param {
    lr_mult: 1
  }
  param {
    lr_mult: 2
  }
  inner_product_param {
    num_output: 10
    weight_filler {
      type: "xavier"
    }
    bias_filler {
      type: "constant"
    }
  }
}
layer {
  name: "loss"
  type: "SoftmaxWithLoss"
  bottom: "ip2"
  bottom: "label"
  top: "loss"
}
I0226 01:36:10.037297 3567440832 layer_factory.hpp:77] Creating layer mnist
I0226 01:36:10.042384 3567440832 net.cpp:100] Creating Layer mnist
I0226 01:36:10.042418 3567440832 net.cpp:408] mnist -> data
I0226 01:36:10.042464 3567440832 net.cpp:408] mnist -> label
I0226 01:36:10.042738 34258944 db_lmdb.cpp:35] Opened lmdb data/mnist/mnist_equation_train_10_lmdb
I0226 01:36:10.042888 3567440832 data_layer.cpp:41] output data size: 64,3,28,84
I0226 01:36:10.045907 3567440832 net.cpp:150] Setting up mnist
I0226 01:36:10.045936 3567440832 net.cpp:157] Top shape: 64 3 28 84 (451584)
I0226 01:36:10.045948 3567440832 net.cpp:157] Top shape: 64 (64)
I0226 01:36:10.045958 3567440832 net.cpp:165] Memory required for data: 1806592
I0226 01:36:10.045975 3567440832 layer_factory.hpp:77] Creating layer conv1
I0226 01:36:10.046017 3567440832 net.cpp:100] Creating Layer conv1
I0226 01:36:10.046030 3567440832 net.cpp:434] conv1 <- data
I0226 01:36:10.046044 3567440832 net.cpp:408] conv1 -> conv1
I0226 01:36:10.046231 3567440832 net.cpp:150] Setting up conv1
I0226 01:36:10.046247 3567440832 net.cpp:157] Top shape: 64 20 24 80 (2457600)
I0226 01:36:10.046254 3567440832 net.cpp:165] Memory required for data: 11636992
I0226 01:36:10.046274 3567440832 layer_factory.hpp:77] Creating layer pool1
I0226 01:36:10.046396 3567440832 net.cpp:100] Creating Layer pool1
I0226 01:36:10.046406 3567440832 net.cpp:434] pool1 <- conv1
I0226 01:36:10.046414 3567440832 net.cpp:408] pool1 -> pool1
I0226 01:36:10.046440 3567440832 net.cpp:150] Setting up pool1
I0226 01:36:10.046447 3567440832 net.cpp:157] Top shape: 64 20 12 40 (614400)
I0226 01:36:10.046454 3567440832 net.cpp:165] Memory required for data: 14094592
I0226 01:36:10.046460 3567440832 layer_factory.hpp:77] Creating layer conv2
I0226 01:36:10.046474 3567440832 net.cpp:100] Creating Layer conv2
I0226 01:36:10.046481 3567440832 net.cpp:434] conv2 <- pool1
I0226 01:36:10.046490 3567440832 net.cpp:408] conv2 -> conv2
I0226 01:36:10.047168 3567440832 net.cpp:150] Setting up conv2
I0226 01:36:10.047204 3567440832 net.cpp:157] Top shape: 64 50 8 36 (921600)
I0226 01:36:10.047220 3567440832 net.cpp:165] Memory required for data: 17780992
I0226 01:36:10.047245 3567440832 layer_factory.hpp:77] Creating layer pool2
I0226 01:36:10.047294 3567440832 net.cpp:100] Creating Layer pool2
I0226 01:36:10.047304 3567440832 net.cpp:434] pool2 <- conv2
I0226 01:36:10.047317 3567440832 net.cpp:408] pool2 -> pool2
I0226 01:36:10.047336 3567440832 net.cpp:150] Setting up pool2
I0226 01:36:10.047345 3567440832 net.cpp:157] Top shape: 64 50 4 18 (230400)
I0226 01:36:10.047355 3567440832 net.cpp:165] Memory required for data: 18702592
I0226 01:36:10.047364 3567440832 layer_factory.hpp:77] Creating layer ip1
I0226 01:36:10.047379 3567440832 net.cpp:100] Creating Layer ip1
I0226 01:36:10.047385 3567440832 net.cpp:434] ip1 <- pool2
I0226 01:36:10.047394 3567440832 net.cpp:408] ip1 -> ip1
I0226 01:36:10.065645 3567440832 net.cpp:150] Setting up ip1
I0226 01:36:10.065670 3567440832 net.cpp:157] Top shape: 64 500 (32000)
I0226 01:36:10.065676 3567440832 net.cpp:165] Memory required for data: 18830592
I0226 01:36:10.065686 3567440832 layer_factory.hpp:77] Creating layer relu1
I0226 01:36:10.065698 3567440832 net.cpp:100] Creating Layer relu1
I0226 01:36:10.065704 3567440832 net.cpp:434] relu1 <- ip1
I0226 01:36:10.065711 3567440832 net.cpp:395] relu1 -> ip1 (in-place)
I0226 01:36:10.065724 3567440832 net.cpp:150] Setting up relu1
I0226 01:36:10.065731 3567440832 net.cpp:157] Top shape: 64 500 (32000)
I0226 01:36:10.065738 3567440832 net.cpp:165] Memory required for data: 18958592
I0226 01:36:10.065745 3567440832 layer_factory.hpp:77] Creating layer ip2
I0226 01:36:10.065757 3567440832 net.cpp:100] Creating Layer ip2
I0226 01:36:10.065762 3567440832 net.cpp:434] ip2 <- ip1
I0226 01:36:10.065774 3567440832 net.cpp:408] ip2 -> ip2
I0226 01:36:10.065851 3567440832 net.cpp:150] Setting up ip2
I0226 01:36:10.065860 3567440832 net.cpp:157] Top shape: 64 10 (640)
I0226 01:36:10.065866 3567440832 net.cpp:165] Memory required for data: 18961152
I0226 01:36:10.065876 3567440832 layer_factory.hpp:77] Creating layer loss
I0226 01:36:10.065889 3567440832 net.cpp:100] Creating Layer loss
I0226 01:36:10.065897 3567440832 net.cpp:434] loss <- ip2
I0226 01:36:10.065903 3567440832 net.cpp:434] loss <- label
I0226 01:36:10.065913 3567440832 net.cpp:408] loss -> loss
…
I0226 01:36:10.066329 3567440832 solver.cpp:181] Creating test net (#0) specified by net file: examples/mnist/lenet_train_test.prototxt
I0226 01:36:10.066362 3567440832 net.cpp:322] The NetState phase (1) differed from the phase (0) specified by a rule in layer mnist
I0226 01:36:10.066376 3567440832 net.cpp:58] Initializing net from parameters: 
name: "LeNet"
state {
  phase: TEST
}
layer {
  name: "mnist"
  type: "Data"
  top: "data"
  top: "label"
  include {
    phase: TEST
  }
  transform_param {
    scale: 0.00390625
  }
  data_param {
    source: "data/mnist/mnist_equation_test_4_lmdb"
    batch_size: 100
    backend: LMDB
  }
}
layer {
  name: "conv1"
  type: "Convolution"
  bottom: "data"
  top: "conv1"
  param {
    lr_mult: 1
  }
  param {
    lr_mult: 2
  }
  convolution_param {
    num_output: 20
    kernel_size: 5
    stride: 1
    weight_filler {
      type: "xavier"
    }
    bias_filler {
      type: "constant"
    }
  }
}
layer {
  name: "pool1"
  type: "Pooling"
  bottom: "conv1"
  top: "pool1"
  pooling_param {
    pool: MAX
    kernel_size: 2
    stride: 2
  }
}
layer {
  name: "conv2"
  type: "Convolution"
  bottom: "pool1"
  top: "conv2"
  param {
    lr_mult: 1
  }
  param {
    lr_mult: 2
  }
  convolution_param {
    num_output: 50
    kernel_size: 5
    stride: 1
    weight_filler {
      type: "xavier"
    }
    bias_filler {
      type: "constant"
    }
  }
}
layer {
  name: "pool2"
  type: "Pooling"
  bottom: "conv2"
  top: "pool2"
  pooling_param {
    pool: MAX
    kernel_size: 2
    stride: 2
  }
}
layer {
  name: "ip1"
  type: "InnerProduct"
  bottom: "pool2"
  top: "ip1"
  param {
    lr_mult: 1
  }
  param {
    lr_mult: 2
  }
  inner_product_param {
    num_output: 500
    weight_filler {
      type: "xavier"
    }
    bias_filler {
      type: "constant"
    }
  }
}
layer {
  name: "relu1"
  type: "ReLU"
  bottom: "ip1"
  top: "ip1"
}
layer {
  name: "ip2"
  type: "InnerProduct"
  bottom: "ip1"
  top: "ip2"
  param {
    lr_mult: 1
  }
  param {
    lr_mult: 2
  }
  inner_product_param {
    num_output: 10
    weight_filler {
      type: "xavier"
    }
    bias_filler {
      type: "constant"
    }
  }
}
layer {
  name: "accuracy"
  type: "Accuracy"
  bottom: "ip2"
  bottom: "label"
  top: "accuracy"
  include {
    phase: TEST
  }
}
layer {
  name: "loss"
  type: "SoftmaxWithLoss"
  bottom: "ip2"
  bottom: "label"
  top: "loss"
}
I0226 01:36:10.066540 3567440832 layer_factory.hpp:77] Creating layer mnist
I0226 01:36:10.066660 3567440832 net.cpp:100] Creating Layer mnist
I0226 01:36:10.066671 3567440832 net.cpp:408] mnist -> data
I0226 01:36:10.066684 3567440832 net.cpp:408] mnist -> label
I0226 01:36:10.066756 35332096 db_lmdb.cpp:35] Opened lmdb data/mnist/mnist_equation_test_4_lmdb
I0226 01:36:10.066809 3567440832 data_layer.cpp:41] output data size: 100,3,28,84
I0226 01:36:10.071498 3567440832 net.cpp:150] Setting up mnist
I0226 01:36:10.071527 3567440832 net.cpp:157] Top shape: 100 3 28 84 (705600)
I0226 01:36:10.071537 3567440832 net.cpp:157] Top shape: 100 (100)
I0226 01:36:10.071543 3567440832 net.cpp:165] Memory required for data: 2822800
I0226 01:36:10.071552 3567440832 layer_factory.hpp:77] Creating layer label_mnist_1_split
I0226 01:36:10.071624 3567440832 net.cpp:100] Creating Layer label_mnist_1_split
I0226 01:36:10.071641 3567440832 net.cpp:434] label_mnist_1_split <- label
I0226 01:36:10.071655 3567440832 net.cpp:408] label_mnist_1_split -> label_mnist_1_split_0
I0226 01:36:10.071671 3567440832 net.cpp:408] label_mnist_1_split -> label_mnist_1_split_1
I0226 01:36:10.071684 3567440832 net.cpp:150] Setting up label_mnist_1_split
I0226 01:36:10.071691 3567440832 net.cpp:157] Top shape: 100 (100)
I0226 01:36:10.071698 3567440832 net.cpp:157] Top shape: 100 (100)
I0226 01:36:10.071705 3567440832 net.cpp:165] Memory required for data: 2823600
I0226 01:36:10.071770 3567440832 layer_factory.hpp:77] Creating layer conv1
I0226 01:36:10.071805 3567440832 net.cpp:100] Creating Layer conv1
I0226 01:36:10.071815 3567440832 net.cpp:434] conv1 <- data
I0226 01:36:10.071859 3567440832 net.cpp:408] conv1 -> conv1
I0226 01:36:10.071928 3567440832 net.cpp:150] Setting up conv1
I0226 01:36:10.071936 3567440832 net.cpp:157] Top shape: 100 20 24 80 (3840000)
I0226 01:36:10.071945 3567440832 net.cpp:165] Memory required for data: 18183600
I0226 01:36:10.071959 3567440832 layer_factory.hpp:77] Creating layer pool1
I0226 01:36:10.072013 3567440832 net.cpp:100] Creating Layer pool1
I0226 01:36:10.072031 3567440832 net.cpp:434] pool1 <- conv1
I0226 01:36:10.072042 3567440832 net.cpp:408] pool1 -> pool1
I0226 01:36:10.072075 3567440832 net.cpp:150] Setting up pool1
I0226 01:36:10.072084 3567440832 net.cpp:157] Top shape: 100 20 12 40 (960000)
I0226 01:36:10.072093 3567440832 net.cpp:165] Memory required for data: 22023600
I0226 01:36:10.072099 3567440832 layer_factory.hpp:77] Creating layer conv2
I0226 01:36:10.072123 3567440832 net.cpp:100] Creating Layer conv2
I0226 01:36:10.072131 3567440832 net.cpp:434] conv2 <- pool1
I0226 01:36:10.072140 3567440832 net.cpp:408] conv2 -> conv2
I0226 01:36:10.072688 3567440832 net.cpp:150] Setting up conv2
I0226 01:36:10.072715 3567440832 net.cpp:157] Top shape: 100 50 8 36 (1440000)
I0226 01:36:10.072733 3567440832 net.cpp:165] Memory required for data: 27783600
I0226 01:36:10.072758 3567440832 layer_factory.hpp:77] Creating layer pool2
I0226 01:36:10.072777 3567440832 net.cpp:100] Creating Layer pool2
I0226 01:36:10.072788 3567440832 net.cpp:434] pool2 <- conv2
I0226 01:36:10.072803 3567440832 net.cpp:408] pool2 -> pool2
I0226 01:36:10.072829 3567440832 net.cpp:150] Setting up pool2
I0226 01:36:10.072841 3567440832 net.cpp:157] Top shape: 100 50 4 18 (360000)
I0226 01:36:10.072855 3567440832 net.cpp:165] Memory required for data: 29223600
I0226 01:36:10.072865 3567440832 layer_factory.hpp:77] Creating layer ip1
I0226 01:36:10.072893 3567440832 net.cpp:100] Creating Layer ip1
I0226 01:36:10.072904 3567440832 net.cpp:434] ip1 <- pool2
I0226 01:36:10.072919 3567440832 net.cpp:408] ip1 -> ip1
I0226 01:36:10.091946 3567440832 net.cpp:150] Setting up ip1
I0226 01:36:10.091969 3567440832 net.cpp:157] Top shape: 100 500 (50000)
I0226 01:36:10.091974 3567440832 net.cpp:165] Memory required for data: 29423600
I0226 01:36:10.091982 3567440832 layer_factory.hpp:77] Creating layer relu1
I0226 01:36:10.091990 3567440832 net.cpp:100] Creating Layer relu1
I0226 01:36:10.091995 3567440832 net.cpp:434] relu1 <- ip1
I0226 01:36:10.092000 3567440832 net.cpp:395] relu1 -> ip1 (in-place)
I0226 01:36:10.092006 3567440832 net.cpp:150] Setting up relu1
I0226 01:36:10.092010 3567440832 net.cpp:157] Top shape: 100 500 (50000)
I0226 01:36:10.092013 3567440832 net.cpp:165] Memory required for data: 29623600
I0226 01:36:10.092016 3567440832 layer_factory.hpp:77] Creating layer ip2
I0226 01:36:10.092067 3567440832 net.cpp:100] Creating Layer ip2
I0226 01:36:10.092072 3567440832 net.cpp:434] ip2 <- ip1
I0226 01:36:10.092077 3567440832 net.cpp:408] ip2 -> ip2
I0226 01:36:10.092131 3567440832 net.cpp:150] Setting up ip2
I0226 01:36:10.092135 3567440832 net.cpp:157] Top shape: 100 10 (1000)
I0226 01:36:10.092139 3567440832 net.cpp:165] Memory required for data: 29627600
I0226 01:36:10.092144 3567440832 layer_factory.hpp:77] Creating layer ip2_ip2_0_split
I0226 01:36:10.092150 3567440832 net.cpp:100] Creating Layer ip2_ip2_0_split
I0226 01:36:10.092154 3567440832 net.cpp:434] ip2_ip2_0_split <- ip2
I0226 01:36:10.092157 3567440832 net.cpp:408] ip2_ip2_0_split -> ip2_ip2_0_split_0
I0226 01:36:10.092164 3567440832 net.cpp:408] ip2_ip2_0_split -> ip2_ip2_0_split_1
I0226 01:36:10.092170 3567440832 net.cpp:150] Setting up ip2_ip2_0_split
I0226 01:36:10.092173 3567440832 net.cpp:157] Top shape: 100 10 (1000)
I0226 01:36:10.092176 3567440832 net.cpp:157] Top shape: 100 10 (1000)
I0226 01:36:10.092180 3567440832 net.cpp:165] Memory required for data: 29635600
I0226 01:36:10.092217 3567440832 layer_factory.hpp:77] Creating layer accuracy
I0226 01:36:10.092227 3567440832 net.cpp:100] Creating Layer accuracy
I0226 01:36:10.092231 3567440832 net.cpp:434] accuracy <- ip2_ip2_0_split_0
I0226 01:36:10.092236 3567440832 net.cpp:434] accuracy <- label_mnist_1_split_0
I0226 01:36:10.092241 3567440832 net.cpp:408] accuracy -> accuracy
…
