…
I0309 00:26:56.642871 3567440832 net.cpp:322] The NetState phase (0) differed from the phase (1) specified by a rule in layer mnist
I0309 00:26:56.642895 3567440832 net.cpp:322] The NetState phase (0) differed from the phase (1) specified by a rule in layer accuracy
I0309 00:26:56.642902 3567440832 net.cpp:58] Initializing net from parameters: 
name: "LeNet"
state {
  phase: TRAIN
  level: 0
  stage: ""
}
layer {
  name: "mnist"
  type: "Data"
  top: "data"
  top: "label"
  include {
    phase: TRAIN
  }
  transform_param {
    scale: 0.00390625
  }
  data_param {
    source: "data/mnist/84x28_training_images_+0_0+_lmdb"
    batch_size: 64
    backend: LMDB
  }
}
layer {
  name: "conv1"
  type: "Convolution"
  bottom: "data"
  top: "conv1"
  param {
    lr_mult: 1
  }
  param {
    lr_mult: 2
  }
  convolution_param {
    num_output: 20
    kernel_size: 5
    stride: 1
    weight_filler {
      type: "xavier"
    }
    bias_filler {
      type: "constant"
    }
  }
}
layer {
  name: "pool1"
  type: "Pooling"
  bottom: "conv1"
  top: "pool1"
  pooling_param {
    pool: MAX
    kernel_size: 2
    stride: 2
  }
}
layer {
  name: "conv2"
  type: "Convolution"
  bottom: "pool1"
  top: "conv2"
  param {
    lr_mult: 1
  }
  param {
    lr_mult: 2
  }
  convolution_param {
    num_output: 50
    kernel_size: 5
    stride: 1
    weight_filler {
      type: "xavier"
    }
    bias_filler {
      type: "constant"
    }
  }
}
layer {
  name: "pool2"
  type: "Pooling"
  bottom: "conv2"
  top: "pool2"
  pooling_param {
    pool: MAX
    kernel_size: 2
    stride: 2
  }
}
layer {
  name: "ip1"
  type: "InnerProduct"
  bottom: "pool2"
  top: "ip1"
  param {
    lr_mult: 1
  }
  param {
    lr_mult: 2
  }
  inner_product_param {
    num_output: 500
    weight_filler {
      type: "xavier"
    }
    bias_filler {
      type: "constant"
    }
  }
}
layer {
  name: "relu1"
  type: "ReLU"
  bottom: "ip1"
  top: "ip1"
}
layer {
  name: "ip2"
  type: "InnerProduct"
  bottom: "ip1"
  top: "ip2"
  param {
    lr_mult: 1
  }
  param {
    lr_mult: 2
  }
  inner_product_param {
    num_output: 10
    weight_filler {
      type: "xavier"
    }
    bias_filler {
      type: "constant"
    }
  }
}
layer {
  name: "loss"
  type: "SoftmaxWithLoss"
  bottom: "ip2"
  bottom: "label"
  top: "loss"
}
I0309 00:26:56.643090 3567440832 layer_factory.hpp:77] Creating layer mnist
I0309 00:26:56.648066 3567440832 net.cpp:100] Creating Layer mnist
I0309 00:26:56.648092 3567440832 net.cpp:408] mnist -> data
I0309 00:26:56.648118 3567440832 net.cpp:408] mnist -> label
I0309 00:26:56.648280 18513920 db_lmdb.cpp:35] Opened lmdb data/mnist/84x28_training_images_+0_0+_lmdb
I0309 00:26:56.648409 3567440832 data_layer.cpp:41] output data size: 64,3,28,84
I0309 00:26:56.651615 3567440832 net.cpp:150] Setting up mnist
I0309 00:26:56.651643 3567440832 net.cpp:157] Top shape: 64 3 28 84 (451584)
I0309 00:26:56.651656 3567440832 net.cpp:157] Top shape: 64 (64)
I0309 00:26:56.651669 3567440832 net.cpp:165] Memory required for data: 1806592
I0309 00:26:56.651682 3567440832 layer_factory.hpp:77] Creating layer conv1
I0309 00:26:56.651703 3567440832 net.cpp:100] Creating Layer conv1
I0309 00:26:56.651711 3567440832 net.cpp:434] conv1 <- data
I0309 00:26:56.651721 3567440832 net.cpp:408] conv1 -> conv1
I0309 00:26:56.651840 3567440832 net.cpp:150] Setting up conv1
I0309 00:26:56.651851 3567440832 net.cpp:157] Top shape: 64 20 24 80 (2457600)
I0309 00:26:56.651859 3567440832 net.cpp:165] Memory required for data: 11636992
I0309 00:26:56.651876 3567440832 layer_factory.hpp:77] Creating layer pool1
I0309 00:26:56.651962 3567440832 net.cpp:100] Creating Layer pool1
I0309 00:26:56.651978 3567440832 net.cpp:434] pool1 <- conv1
I0309 00:26:56.652032 3567440832 net.cpp:408] pool1 -> pool1
I0309 00:26:56.652060 3567440832 net.cpp:150] Setting up pool1
I0309 00:26:56.652067 3567440832 net.cpp:157] Top shape: 64 20 12 40 (614400)
I0309 00:26:56.652076 3567440832 net.cpp:165] Memory required for data: 14094592
I0309 00:26:56.652083 3567440832 layer_factory.hpp:77] Creating layer conv2
I0309 00:26:56.652097 3567440832 net.cpp:100] Creating Layer conv2
I0309 00:26:56.652104 3567440832 net.cpp:434] conv2 <- pool1
I0309 00:26:56.652114 3567440832 net.cpp:408] conv2 -> conv2
I0309 00:26:56.652503 3567440832 net.cpp:150] Setting up conv2
I0309 00:26:56.652516 3567440832 net.cpp:157] Top shape: 64 50 8 36 (921600)
I0309 00:26:56.652528 3567440832 net.cpp:165] Memory required for data: 17780992
I0309 00:26:56.652540 3567440832 layer_factory.hpp:77] Creating layer pool2
I0309 00:26:56.652550 3567440832 net.cpp:100] Creating Layer pool2
I0309 00:26:56.652559 3567440832 net.cpp:434] pool2 <- conv2
I0309 00:26:56.652566 3567440832 net.cpp:408] pool2 -> pool2
I0309 00:26:56.652581 3567440832 net.cpp:150] Setting up pool2
I0309 00:26:56.652587 3567440832 net.cpp:157] Top shape: 64 50 4 18 (230400)
I0309 00:26:56.652595 3567440832 net.cpp:165] Memory required for data: 18702592
I0309 00:26:56.652602 3567440832 layer_factory.hpp:77] Creating layer ip1
I0309 00:26:56.652617 3567440832 net.cpp:100] Creating Layer ip1
I0309 00:26:56.652626 3567440832 net.cpp:434] ip1 <- pool2
I0309 00:26:56.652634 3567440832 net.cpp:408] ip1 -> ip1
I0309 00:26:56.676682 3567440832 net.cpp:150] Setting up ip1
I0309 00:26:56.676705 3567440832 net.cpp:157] Top shape: 64 500 (32000)
I0309 00:26:56.676713 3567440832 net.cpp:165] Memory required for data: 18830592
I0309 00:26:56.676723 3567440832 layer_factory.hpp:77] Creating layer relu1
I0309 00:26:56.676753 3567440832 net.cpp:100] Creating Layer relu1
I0309 00:26:56.676770 3567440832 net.cpp:434] relu1 <- ip1
I0309 00:26:56.676782 3567440832 net.cpp:395] relu1 -> ip1 (in-place)
I0309 00:26:56.676796 3567440832 net.cpp:150] Setting up relu1
I0309 00:26:56.676805 3567440832 net.cpp:157] Top shape: 64 500 (32000)
I0309 00:26:56.676812 3567440832 net.cpp:165] Memory required for data: 18958592
I0309 00:26:56.676820 3567440832 layer_factory.hpp:77] Creating layer ip2
I0309 00:26:56.676831 3567440832 net.cpp:100] Creating Layer ip2
I0309 00:26:56.676837 3567440832 net.cpp:434] ip2 <- ip1
I0309 00:26:56.676853 3567440832 net.cpp:408] ip2 -> ip2
I0309 00:26:56.676951 3567440832 net.cpp:150] Setting up ip2
I0309 00:26:56.676961 3567440832 net.cpp:157] Top shape: 64 10 (640)
I0309 00:26:56.676970 3567440832 net.cpp:165] Memory required for data: 18961152
I0309 00:26:56.676980 3567440832 layer_factory.hpp:77] Creating layer loss
I0309 00:26:56.676995 3567440832 net.cpp:100] Creating Layer loss
I0309 00:26:56.677003 3567440832 net.cpp:434] loss <- ip2
I0309 00:26:56.677011 3567440832 net.cpp:434] loss <- label
I0309 00:26:56.677021 3567440832 net.cpp:408] loss -> loss
…
I0309 00:26:56.677541 3567440832 solver.cpp:181] Creating test net (#0) specified by net file: examples/mnist/lenet_train_test.prototxt
I0309 00:26:56.677583 3567440832 net.cpp:322] The NetState phase (1) differed from the phase (0) specified by a rule in layer mnist
I0309 00:26:56.677604 3567440832 net.cpp:58] Initializing net from parameters: 
name: "LeNet"
state {
  phase: TEST
}
layer {
  name: "mnist"
  type: "Data"
  top: "data"
  top: "label"
  include {
    phase: TEST
  }
  transform_param {
    scale: 0.00390625
  }
  data_param {
    source: "data/mnist/84x28_testing_images_+0_0+_lmdb"
    batch_size: 100
    backend: LMDB
  }
}
layer {
  name: "conv1"
  type: "Convolution"
  bottom: "data"
  top: "conv1"
  param {
    lr_mult: 1
  }
  param {
    lr_mult: 2
  }
  convolution_param {
    num_output: 20
    kernel_size: 5
    stride: 1
    weight_filler {
      type: "xavier"
    }
    bias_filler {
      type: "constant"
    }
  }
}
layer {
  name: "pool1"
  type: "Pooling"
  bottom: "conv1"
  top: "pool1"
  pooling_param {
    pool: MAX
    kernel_size: 2
    stride: 2
  }
}
layer {
  name: "conv2"
  type: "Convolution"
  bottom: "pool1"
  top: "conv2"
  param {
    lr_mult: 1
  }
  param {
    lr_mult: 2
  }
  convolution_param {
    num_output: 50
    kernel_size: 5
    stride: 1
    weight_filler {
      type: "xavier"
    }
    bias_filler {
      type: "constant"
    }
  }
}
layer {
  name: "pool2"
  type: "Pooling"
  bottom: "conv2"
  top: "pool2"
  pooling_param {
    pool: MAX
    kernel_size: 2
    stride: 2
  }
}
layer {
  name: "ip1"
  type: "InnerProduct"
  bottom: "pool2"
  top: "ip1"
  param {
    lr_mult: 1
  }
  param {
    lr_mult: 2
  }
  inner_product_param {
    num_output: 500
    weight_filler {
      type: "xavier"
    }
    bias_filler {
      type: "constant"
    }
  }
}
layer {
  name: "relu1"
  type: "ReLU"
  bottom: "ip1"
  top: "ip1"
}
layer {
  name: "ip2"
  type: "InnerProduct"
  bottom: "ip1"
  top: "ip2"
  param {
    lr_mult: 1
  }
  param {
    lr_mult: 2
  }
  inner_product_param {
    num_output: 10
    weight_filler {
      type: "xavier"
    }
    bias_filler {
      type: "constant"
    }
  }
}
layer {
  name: "accuracy"
  type: "Accuracy"
  bottom: "ip2"
  bottom: "label"
  top: "accuracy"
  include {
    phase: TEST
  }
}
layer {
  name: "loss"
  type: "SoftmaxWithLoss"
  bottom: "ip2"
  bottom: "label"
  top: "loss"
}
I0309 00:26:56.677786 3567440832 layer_factory.hpp:77] Creating layer mnist
I0309 00:26:56.677939 3567440832 net.cpp:100] Creating Layer mnist
I0309 00:26:56.677953 3567440832 net.cpp:408] mnist -> data
I0309 00:26:56.677968 3567440832 net.cpp:408] mnist -> label
I0309 00:26:56.678045 19587072 db_lmdb.cpp:35] Opened lmdb data/mnist/84x28_testing_images_+0_0+_lmdb
I0309 00:26:56.678110 3567440832 data_layer.cpp:41] output data size: 100,3,28,84
I0309 00:26:56.682698 3567440832 net.cpp:150] Setting up mnist
I0309 00:26:56.682731 3567440832 net.cpp:157] Top shape: 100 3 28 84 (705600)
I0309 00:26:56.682742 3567440832 net.cpp:157] Top shape: 100 (100)
I0309 00:26:56.682749 3567440832 net.cpp:165] Memory required for data: 2822800
I0309 00:26:56.682756 3567440832 layer_factory.hpp:77] Creating layer label_mnist_1_split
I0309 00:26:56.682775 3567440832 net.cpp:100] Creating Layer label_mnist_1_split
I0309 00:26:56.682785 3567440832 net.cpp:434] label_mnist_1_split <- label
I0309 00:26:56.682793 3567440832 net.cpp:408] label_mnist_1_split -> label_mnist_1_split_0
I0309 00:26:56.682809 3567440832 net.cpp:408] label_mnist_1_split -> label_mnist_1_split_1
I0309 00:26:56.682826 3567440832 net.cpp:150] Setting up label_mnist_1_split
I0309 00:26:56.682833 3567440832 net.cpp:157] Top shape: 100 (100)
I0309 00:26:56.682842 3567440832 net.cpp:157] Top shape: 100 (100)
I0309 00:26:56.682848 3567440832 net.cpp:165] Memory required for data: 2823600
I0309 00:26:56.682894 3567440832 layer_factory.hpp:77] Creating layer conv1
I0309 00:26:56.682911 3567440832 net.cpp:100] Creating Layer conv1
I0309 00:26:56.682917 3567440832 net.cpp:434] conv1 <- data
I0309 00:26:56.682927 3567440832 net.cpp:408] conv1 -> conv1
I0309 00:26:56.683035 3567440832 net.cpp:150] Setting up conv1
I0309 00:26:56.683051 3567440832 net.cpp:157] Top shape: 100 20 24 80 (3840000)
I0309 00:26:56.683063 3567440832 net.cpp:165] Memory required for data: 18183600
I0309 00:26:56.683075 3567440832 layer_factory.hpp:77] Creating layer pool1
I0309 00:26:56.683091 3567440832 net.cpp:100] Creating Layer pool1
I0309 00:26:56.683099 3567440832 net.cpp:434] pool1 <- conv1
I0309 00:26:56.683109 3567440832 net.cpp:408] pool1 -> pool1
I0309 00:26:56.683125 3567440832 net.cpp:150] Setting up pool1
I0309 00:26:56.683132 3567440832 net.cpp:157] Top shape: 100 20 12 40 (960000)
I0309 00:26:56.683140 3567440832 net.cpp:165] Memory required for data: 22023600
I0309 00:26:56.683146 3567440832 layer_factory.hpp:77] Creating layer conv2
I0309 00:26:56.683161 3567440832 net.cpp:100] Creating Layer conv2
I0309 00:26:56.683168 3567440832 net.cpp:434] conv2 <- pool1
I0309 00:26:56.683182 3567440832 net.cpp:408] conv2 -> conv2
I0309 00:26:56.683594 3567440832 net.cpp:150] Setting up conv2
I0309 00:26:56.683607 3567440832 net.cpp:157] Top shape: 100 50 8 36 (1440000)
I0309 00:26:56.683617 3567440832 net.cpp:165] Memory required for data: 27783600
I0309 00:26:56.683630 3567440832 layer_factory.hpp:77] Creating layer pool2
I0309 00:26:56.683641 3567440832 net.cpp:100] Creating Layer pool2
I0309 00:26:56.683648 3567440832 net.cpp:434] pool2 <- conv2
I0309 00:26:56.683657 3567440832 net.cpp:408] pool2 -> pool2
I0309 00:26:56.683672 3567440832 net.cpp:150] Setting up pool2
I0309 00:26:56.683679 3567440832 net.cpp:157] Top shape: 100 50 4 18 (360000)
I0309 00:26:56.683687 3567440832 net.cpp:165] Memory required for data: 29223600
I0309 00:26:56.683696 3567440832 layer_factory.hpp:77] Creating layer ip1
I0309 00:26:56.683710 3567440832 net.cpp:100] Creating Layer ip1
I0309 00:26:56.683718 3567440832 net.cpp:434] ip1 <- pool2
I0309 00:26:56.683728 3567440832 net.cpp:408] ip1 -> ip1
I0309 00:26:56.705996 3567440832 net.cpp:150] Setting up ip1
I0309 00:26:56.706027 3567440832 net.cpp:157] Top shape: 100 500 (50000)
I0309 00:26:56.706032 3567440832 net.cpp:165] Memory required for data: 29423600
I0309 00:26:56.706046 3567440832 layer_factory.hpp:77] Creating layer relu1
I0309 00:26:56.706059 3567440832 net.cpp:100] Creating Layer relu1
I0309 00:26:56.706065 3567440832 net.cpp:434] relu1 <- ip1
I0309 00:26:56.706073 3567440832 net.cpp:395] relu1 -> ip1 (in-place)
I0309 00:26:56.706086 3567440832 net.cpp:150] Setting up relu1
I0309 00:26:56.706094 3567440832 net.cpp:157] Top shape: 100 500 (50000)
I0309 00:26:56.706101 3567440832 net.cpp:165] Memory required for data: 29623600
I0309 00:26:56.706109 3567440832 layer_factory.hpp:77] Creating layer ip2
I0309 00:26:56.706121 3567440832 net.cpp:100] Creating Layer ip2
I0309 00:26:56.706128 3567440832 net.cpp:434] ip2 <- ip1
I0309 00:26:56.706137 3567440832 net.cpp:408] ip2 -> ip2
I0309 00:26:56.706233 3567440832 net.cpp:150] Setting up ip2
I0309 00:26:56.706243 3567440832 net.cpp:157] Top shape: 100 10 (1000)
I0309 00:26:56.706249 3567440832 net.cpp:165] Memory required for data: 29627600
I0309 00:26:56.706257 3567440832 layer_factory.hpp:77] Creating layer ip2_ip2_0_split
I0309 00:26:56.706264 3567440832 net.cpp:100] Creating Layer ip2_ip2_0_split
I0309 00:26:56.706272 3567440832 net.cpp:434] ip2_ip2_0_split <- ip2
I0309 00:26:56.706280 3567440832 net.cpp:408] ip2_ip2_0_split -> ip2_ip2_0_split_0
I0309 00:26:56.706291 3567440832 net.cpp:408] ip2_ip2_0_split -> ip2_ip2_0_split_1
I0309 00:26:56.706305 3567440832 net.cpp:150] Setting up ip2_ip2_0_split
I0309 00:26:56.706312 3567440832 net.cpp:157] Top shape: 100 10 (1000)
I0309 00:26:56.706321 3567440832 net.cpp:157] Top shape: 100 10 (1000)
I0309 00:26:56.706327 3567440832 net.cpp:165] Memory required for data: 29635600
I0309 00:26:56.706360 3567440832 layer_factory.hpp:77] Creating layer accuracy
I0309 00:26:56.706377 3567440832 net.cpp:100] Creating Layer accuracy
I0309 00:26:56.706385 3567440832 net.cpp:434] accuracy <- ip2_ip2_0_split_0
I0309 00:26:56.706393 3567440832 net.cpp:434] accuracy <- label_mnist_1_split_0
I0309 00:26:56.706403 3567440832 net.cpp:408] accuracy -> accuracy
…
