…
I0227 22:19:54.327168 3567440832 net.cpp:322] The NetState phase (0) differed from the phase (1) specified by a rule in layer mnist
I0227 22:19:54.327191 3567440832 net.cpp:322] The NetState phase (0) differed from the phase (1) specified by a rule in layer accuracy
I0227 22:19:54.327203 3567440832 net.cpp:58] Initializing net from parameters: 
name: "LeNet"
state {
  phase: TRAIN
  level: 0
  stage: ""
}
layer {
  name: "mnist"
  type: "Data"
  top: "data"
  top: "label"
  include {
    phase: TRAIN
  }
  transform_param {
    scale: 0.00390625
  }
  data_param {
    source: "data/mnist/training_equations_8_9_10_lmdb"
    batch_size: 64
    backend: LMDB
  }
}
layer {
  name: "conv1"
  type: "Convolution"
  bottom: "data"
  top: "conv1"
  param {
    lr_mult: 1
  }
  param {
    lr_mult: 2
  }
  convolution_param {
    num_output: 20
    kernel_size: 5
    stride: 1
    weight_filler {
      type: "xavier"
    }
    bias_filler {
      type: "constant"
    }
  }
}
layer {
  name: "pool1"
  type: "Pooling"
  bottom: "conv1"
  top: "pool1"
  pooling_param {
    pool: MAX
    kernel_size: 2
    stride: 2
  }
}
layer {
  name: "conv2"
  type: "Convolution"
  bottom: "pool1"
  top: "conv2"
  param {
    lr_mult: 1
  }
  param {
    lr_mult: 2
  }
  convolution_param {
    num_output: 50
    kernel_size: 5
    stride: 1
    weight_filler {
      type: "xavier"
    }
    bias_filler {
      type: "constant"
    }
  }
}
layer {
  name: "pool2"
  type: "Pooling"
  bottom: "conv2"
  top: "pool2"
  pooling_param {
    pool: MAX
    kernel_size: 2
    stride: 2
  }
}
layer {
  name: "ip1"
  type: "InnerProduct"
  bottom: "pool2"
  top: "ip1"
  param {
    lr_mult: 1
  }
  param {
    lr_mult: 2
  }
  inner_product_param {
    num_output: 500
    weight_filler {
      type: "xavier"
    }
    bias_filler {
      type: "constant"
    }
  }
}
layer {
  name: "relu1"
  type: "ReLU"
  bottom: "ip1"
  top: "ip1"
}
layer {
  name: "ip2"
  type: "InnerProduct"
  bottom: "ip1"
  top: "ip2"
  param {
    lr_mult: 1
  }
  param {
    lr_mult: 2
  }
  inner_product_param {
    num_output: 10
    weight_filler {
      type: "xavier"
    }
    bias_filler {
      type: "constant"
    }
  }
}
layer {
  name: "loss"
  type: "SoftmaxWithLoss"
  bottom: "ip2"
  bottom: "label"
  top: "loss"
}
I0227 22:19:54.327352 3567440832 layer_factory.hpp:77] Creating layer mnist
I0227 22:19:54.334538 3567440832 net.cpp:100] Creating Layer mnist
I0227 22:19:54.334568 3567440832 net.cpp:408] mnist -> data
I0227 22:19:54.334592 3567440832 net.cpp:408] mnist -> label
I0227 22:19:54.334780 213348352 db_lmdb.cpp:35] Opened lmdb data/mnist/training_equations_8_9_10_lmdb
I0227 22:19:54.334906 3567440832 data_layer.cpp:41] output data size: 64,3,28,84
I0227 22:19:54.338312 3567440832 net.cpp:150] Setting up mnist
I0227 22:19:54.338341 3567440832 net.cpp:157] Top shape: 64 3 28 84 (451584)
I0227 22:19:54.338352 3567440832 net.cpp:157] Top shape: 64 (64)
I0227 22:19:54.338362 3567440832 net.cpp:165] Memory required for data: 1806592
I0227 22:19:54.338402 3567440832 layer_factory.hpp:77] Creating layer conv1
I0227 22:19:54.338428 3567440832 net.cpp:100] Creating Layer conv1
I0227 22:19:54.338439 3567440832 net.cpp:434] conv1 <- data
I0227 22:19:54.338450 3567440832 net.cpp:408] conv1 -> conv1
I0227 22:19:54.338562 3567440832 net.cpp:150] Setting up conv1
I0227 22:19:54.338572 3567440832 net.cpp:157] Top shape: 64 20 24 80 (2457600)
I0227 22:19:54.338582 3567440832 net.cpp:165] Memory required for data: 11636992
I0227 22:19:54.338595 3567440832 layer_factory.hpp:77] Creating layer pool1
I0227 22:19:54.338630 3567440832 net.cpp:100] Creating Layer pool1
I0227 22:19:54.338639 3567440832 net.cpp:434] pool1 <- conv1
I0227 22:19:54.338650 3567440832 net.cpp:408] pool1 -> pool1
I0227 22:19:54.338670 3567440832 net.cpp:150] Setting up pool1
I0227 22:19:54.338676 3567440832 net.cpp:157] Top shape: 64 20 12 40 (614400)
I0227 22:19:54.338731 3567440832 net.cpp:165] Memory required for data: 14094592
I0227 22:19:54.338739 3567440832 layer_factory.hpp:77] Creating layer conv2
I0227 22:19:54.338754 3567440832 net.cpp:100] Creating Layer conv2
I0227 22:19:54.338835 3567440832 net.cpp:434] conv2 <- pool1
I0227 22:19:54.338850 3567440832 net.cpp:408] conv2 -> conv2
I0227 22:19:54.339306 3567440832 net.cpp:150] Setting up conv2
I0227 22:19:54.339318 3567440832 net.cpp:157] Top shape: 64 50 8 36 (921600)
I0227 22:19:54.339326 3567440832 net.cpp:165] Memory required for data: 17780992
I0227 22:19:54.339339 3567440832 layer_factory.hpp:77] Creating layer pool2
I0227 22:19:54.339349 3567440832 net.cpp:100] Creating Layer pool2
I0227 22:19:54.339355 3567440832 net.cpp:434] pool2 <- conv2
I0227 22:19:54.339364 3567440832 net.cpp:408] pool2 -> pool2
I0227 22:19:54.339432 3567440832 net.cpp:150] Setting up pool2
I0227 22:19:54.339442 3567440832 net.cpp:157] Top shape: 64 50 4 18 (230400)
I0227 22:19:54.339452 3567440832 net.cpp:165] Memory required for data: 18702592
I0227 22:19:54.339458 3567440832 layer_factory.hpp:77] Creating layer ip1
I0227 22:19:54.339470 3567440832 net.cpp:100] Creating Layer ip1
I0227 22:19:54.339478 3567440832 net.cpp:434] ip1 <- pool2
I0227 22:19:54.339486 3567440832 net.cpp:408] ip1 -> ip1
I0227 22:19:54.360478 3567440832 net.cpp:150] Setting up ip1
I0227 22:19:54.360502 3567440832 net.cpp:157] Top shape: 64 500 (32000)
I0227 22:19:54.360512 3567440832 net.cpp:165] Memory required for data: 18830592
I0227 22:19:54.360527 3567440832 layer_factory.hpp:77] Creating layer relu1
I0227 22:19:54.360551 3567440832 net.cpp:100] Creating Layer relu1
I0227 22:19:54.360560 3567440832 net.cpp:434] relu1 <- ip1
I0227 22:19:54.360569 3567440832 net.cpp:395] relu1 -> ip1 (in-place)
I0227 22:19:54.360580 3567440832 net.cpp:150] Setting up relu1
I0227 22:19:54.360587 3567440832 net.cpp:157] Top shape: 64 500 (32000)
I0227 22:19:54.360594 3567440832 net.cpp:165] Memory required for data: 18958592
I0227 22:19:54.360601 3567440832 layer_factory.hpp:77] Creating layer ip2
I0227 22:19:54.360612 3567440832 net.cpp:100] Creating Layer ip2
I0227 22:19:54.360620 3567440832 net.cpp:434] ip2 <- ip1
I0227 22:19:54.360628 3567440832 net.cpp:408] ip2 -> ip2
I0227 22:19:54.360725 3567440832 net.cpp:150] Setting up ip2
I0227 22:19:54.360735 3567440832 net.cpp:157] Top shape: 64 10 (640)
I0227 22:19:54.360743 3567440832 net.cpp:165] Memory required for data: 18961152
I0227 22:19:54.360752 3567440832 layer_factory.hpp:77] Creating layer loss
I0227 22:19:54.360769 3567440832 net.cpp:100] Creating Layer loss
I0227 22:19:54.360777 3567440832 net.cpp:434] loss <- ip2
I0227 22:19:54.360785 3567440832 net.cpp:434] loss <- label
I0227 22:19:54.360795 3567440832 net.cpp:408] loss -> loss
…
I0227 22:19:54.361253 3567440832 solver.cpp:181] Creating test net (#0) specified by net file: examples/mnist/lenet_train_test.prototxt
I0227 22:19:54.361300 3567440832 net.cpp:322] The NetState phase (1) differed from the phase (0) specified by a rule in layer mnist
I0227 22:19:54.361320 3567440832 net.cpp:58] Initializing net from parameters: 
name: "LeNet"
state {
  phase: TEST
}
layer {
  name: "mnist"
  type: "Data"
  top: "data"
  top: "label"
  include {
    phase: TEST
  }
  transform_param {
    scale: 0.00390625
  }
  data_param {
    source: "data/mnist/testing_equations_8_9_10_lmdb"
    batch_size: 100
    backend: LMDB
  }
}
layer {
  name: "conv1"
  type: "Convolution"
  bottom: "data"
  top: "conv1"
  param {
    lr_mult: 1
  }
  param {
    lr_mult: 2
  }
  convolution_param {
    num_output: 20
    kernel_size: 5
    stride: 1
    weight_filler {
      type: "xavier"
    }
    bias_filler {
      type: "constant"
    }
  }
}
layer {
  name: "pool1"
  type: "Pooling"
  bottom: "conv1"
  top: "pool1"
  pooling_param {
    pool: MAX
    kernel_size: 2
    stride: 2
  }
}
layer {
  name: "conv2"
  type: "Convolution"
  bottom: "pool1"
  top: "conv2"
  param {
    lr_mult: 1
  }
  param {
    lr_mult: 2
  }
  convolution_param {
    num_output: 50
    kernel_size: 5
    stride: 1
    weight_filler {
      type: "xavier"
    }
    bias_filler {
      type: "constant"
    }
  }
}
layer {
  name: "pool2"
  type: "Pooling"
  bottom: "conv2"
  top: "pool2"
  pooling_param {
    pool: MAX
    kernel_size: 2
    stride: 2
  }
}
layer {
  name: "ip1"
  type: "InnerProduct"
  bottom: "pool2"
  top: "ip1"
  param {
    lr_mult: 1
  }
  param {
    lr_mult: 2
  }
  inner_product_param {
    num_output: 500
    weight_filler {
      type: "xavier"
    }
    bias_filler {
      type: "constant"
    }
  }
}
layer {
  name: "relu1"
  type: "ReLU"
  bottom: "ip1"
  top: "ip1"
}
layer {
  name: "ip2"
  type: "InnerProduct"
  bottom: "ip1"
  top: "ip2"
  param {
    lr_mult: 1
  }
  param {
    lr_mult: 2
  }
  inner_product_param {
    num_output: 10
    weight_filler {
      type: "xavier"
    }
    bias_filler {
      type: "constant"
    }
  }
}
layer {
  name: "accuracy"
  type: "Accuracy"
  bottom: "ip2"
  bottom: "label"
  top: "accuracy"
  include {
    phase: TEST
  }
}
layer {
  name: "loss"
  type: "SoftmaxWithLoss"
  bottom: "ip2"
  bottom: "label"
  top: "loss"
}
I0227 22:19:54.361490 3567440832 layer_factory.hpp:77] Creating layer mnist
I0227 22:19:54.361644 3567440832 net.cpp:100] Creating Layer mnist
I0227 22:19:54.361656 3567440832 net.cpp:408] mnist -> data
I0227 22:19:54.361671 3567440832 net.cpp:408] mnist -> label
I0227 22:19:54.361727 214421504 db_lmdb.cpp:35] Opened lmdb data/mnist/testing_equations_8_9_10_lmdb
I0227 22:19:54.361783 3567440832 data_layer.cpp:41] output data size: 100,3,28,84
I0227 22:19:54.365936 3567440832 net.cpp:150] Setting up mnist
I0227 22:19:54.365970 3567440832 net.cpp:157] Top shape: 100 3 28 84 (705600)
I0227 22:19:54.365981 3567440832 net.cpp:157] Top shape: 100 (100)
I0227 22:19:54.365988 3567440832 net.cpp:165] Memory required for data: 2822800
I0227 22:19:54.365996 3567440832 layer_factory.hpp:77] Creating layer label_mnist_1_split
I0227 22:19:54.366039 3567440832 net.cpp:100] Creating Layer label_mnist_1_split
I0227 22:19:54.366052 3567440832 net.cpp:434] label_mnist_1_split <- label
I0227 22:19:54.366062 3567440832 net.cpp:408] label_mnist_1_split -> label_mnist_1_split_0
I0227 22:19:54.366075 3567440832 net.cpp:408] label_mnist_1_split -> label_mnist_1_split_1
I0227 22:19:54.366087 3567440832 net.cpp:150] Setting up label_mnist_1_split
I0227 22:19:54.366094 3567440832 net.cpp:157] Top shape: 100 (100)
I0227 22:19:54.366101 3567440832 net.cpp:157] Top shape: 100 (100)
I0227 22:19:54.366106 3567440832 net.cpp:165] Memory required for data: 2823600
I0227 22:19:54.366152 3567440832 layer_factory.hpp:77] Creating layer conv1
I0227 22:19:54.366165 3567440832 net.cpp:100] Creating Layer conv1
I0227 22:19:54.366173 3567440832 net.cpp:434] conv1 <- data
I0227 22:19:54.366186 3567440832 net.cpp:408] conv1 -> conv1
I0227 22:19:54.366260 3567440832 net.cpp:150] Setting up conv1
I0227 22:19:54.366271 3567440832 net.cpp:157] Top shape: 100 20 24 80 (3840000)
I0227 22:19:54.366279 3567440832 net.cpp:165] Memory required for data: 18183600
I0227 22:19:54.366291 3567440832 layer_factory.hpp:77] Creating layer pool1
I0227 22:19:54.366307 3567440832 net.cpp:100] Creating Layer pool1
I0227 22:19:54.366315 3567440832 net.cpp:434] pool1 <- conv1
I0227 22:19:54.366323 3567440832 net.cpp:408] pool1 -> pool1
I0227 22:19:54.366339 3567440832 net.cpp:150] Setting up pool1
I0227 22:19:54.366345 3567440832 net.cpp:157] Top shape: 100 20 12 40 (960000)
I0227 22:19:54.366353 3567440832 net.cpp:165] Memory required for data: 22023600
I0227 22:19:54.366359 3567440832 layer_factory.hpp:77] Creating layer conv2
I0227 22:19:54.366379 3567440832 net.cpp:100] Creating Layer conv2
I0227 22:19:54.366385 3567440832 net.cpp:434] conv2 <- pool1
I0227 22:19:54.366396 3567440832 net.cpp:408] conv2 -> conv2
I0227 22:19:54.366803 3567440832 net.cpp:150] Setting up conv2
I0227 22:19:54.366817 3567440832 net.cpp:157] Top shape: 100 50 8 36 (1440000)
I0227 22:19:54.366832 3567440832 net.cpp:165] Memory required for data: 27783600
I0227 22:19:54.366853 3567440832 layer_factory.hpp:77] Creating layer pool2
I0227 22:19:54.366866 3567440832 net.cpp:100] Creating Layer pool2
I0227 22:19:54.366874 3567440832 net.cpp:434] pool2 <- conv2
I0227 22:19:54.366883 3567440832 net.cpp:408] pool2 -> pool2
I0227 22:19:54.366897 3567440832 net.cpp:150] Setting up pool2
I0227 22:19:54.366904 3567440832 net.cpp:157] Top shape: 100 50 4 18 (360000)
I0227 22:19:54.366912 3567440832 net.cpp:165] Memory required for data: 29223600
I0227 22:19:54.366919 3567440832 layer_factory.hpp:77] Creating layer ip1
I0227 22:19:54.366932 3567440832 net.cpp:100] Creating Layer ip1
I0227 22:19:54.366940 3567440832 net.cpp:434] ip1 <- pool2
I0227 22:19:54.366948 3567440832 net.cpp:408] ip1 -> ip1
I0227 22:19:54.386759 3567440832 net.cpp:150] Setting up ip1
I0227 22:19:54.386780 3567440832 net.cpp:157] Top shape: 100 500 (50000)
I0227 22:19:54.386790 3567440832 net.cpp:165] Memory required for data: 29423600
I0227 22:19:54.386804 3567440832 layer_factory.hpp:77] Creating layer relu1
I0227 22:19:54.386816 3567440832 net.cpp:100] Creating Layer relu1
I0227 22:19:54.386822 3567440832 net.cpp:434] relu1 <- ip1
I0227 22:19:54.386832 3567440832 net.cpp:395] relu1 -> ip1 (in-place)
I0227 22:19:54.386844 3567440832 net.cpp:150] Setting up relu1
I0227 22:19:54.386852 3567440832 net.cpp:157] Top shape: 100 500 (50000)
I0227 22:19:54.386860 3567440832 net.cpp:165] Memory required for data: 29623600
I0227 22:19:54.386867 3567440832 layer_factory.hpp:77] Creating layer ip2
I0227 22:19:54.386878 3567440832 net.cpp:100] Creating Layer ip2
I0227 22:19:54.386885 3567440832 net.cpp:434] ip2 <- ip1
I0227 22:19:54.386895 3567440832 net.cpp:408] ip2 -> ip2
I0227 22:19:54.386979 3567440832 net.cpp:150] Setting up ip2
I0227 22:19:54.386987 3567440832 net.cpp:157] Top shape: 100 10 (1000)
I0227 22:19:54.386994 3567440832 net.cpp:165] Memory required for data: 29627600
I0227 22:19:54.387003 3567440832 layer_factory.hpp:77] Creating layer ip2_ip2_0_split
I0227 22:19:54.387013 3567440832 net.cpp:100] Creating Layer ip2_ip2_0_split
I0227 22:19:54.387020 3567440832 net.cpp:434] ip2_ip2_0_split <- ip2
I0227 22:19:54.387029 3567440832 net.cpp:408] ip2_ip2_0_split -> ip2_ip2_0_split_0
I0227 22:19:54.387042 3567440832 net.cpp:408] ip2_ip2_0_split -> ip2_ip2_0_split_1
I0227 22:19:54.387054 3567440832 net.cpp:150] Setting up ip2_ip2_0_split
I0227 22:19:54.387061 3567440832 net.cpp:157] Top shape: 100 10 (1000)
I0227 22:19:54.387070 3567440832 net.cpp:157] Top shape: 100 10 (1000)
I0227 22:19:54.387078 3567440832 net.cpp:165] Memory required for data: 29635600
I0227 22:19:54.387110 3567440832 layer_factory.hpp:77] Creating layer accuracy
I0227 22:19:54.387126 3567440832 net.cpp:100] Creating Layer accuracy
I0227 22:19:54.387135 3567440832 net.cpp:434] accuracy <- ip2_ip2_0_split_0
I0227 22:19:54.387143 3567440832 net.cpp:434] accuracy <- label_mnist_1_split_0
I0227 22:19:54.387153 3567440832 net.cpp:408] accuracy -> accuracy
…
